<?xml version="1.0" ?>
<net name="person-reidentification-retail-0277" version="10">
	<layers>
		<layer id="0" name="data" type="Parameter" version="opset1">
			<data element_type="f16" shape="1,3,256,128"/>
			<output>
				<port id="0" precision="FP16">
					<dim>1</dim>
					<dim>3</dim>
					<dim>256</dim>
					<dim>128</dim>
				</port>
			</output>
		</layer>
		<layer id="1" name="data/reverse_input_channels4001740021/Split_input_port_1/value40051_const1202_const" type="Const" version="opset1">
			<data element_type="i64" offset="0" shape="" size="8"/>
			<output>
				<port id="0" precision="I64"/>
			</output>
		</layer>
		<layer id="2" name="data/reverse_input_channels4001740021/Split" type="Split" version="opset1">
			<data num_splits="3"/>
			<input>
				<port id="0">
					<dim>1</dim>
					<dim>3</dim>
					<dim>256</dim>
					<dim>128</dim>
				</port>
				<port id="1"/>
			</input>
			<output>
				<port id="2" precision="FP16">
					<dim>1</dim>
					<dim>1</dim>
					<dim>256</dim>
					<dim>128</dim>
				</port>
				<port id="3" precision="FP16">
					<dim>1</dim>
					<dim>1</dim>
					<dim>256</dim>
					<dim>128</dim>
				</port>
				<port id="4" precision="FP16">
					<dim>1</dim>
					<dim>1</dim>
					<dim>256</dim>
					<dim>128</dim>
				</port>
			</output>
		</layer>
		<layer id="3" name="data/reverse_input_channels4001740021/Concat" type="Concat" version="opset1">
			<data axis="1"/>
			<input>
				<port id="0">
					<dim>1</dim>
					<dim>1</dim>
					<dim>256</dim>
					<dim>128</dim>
				</port>
				<port id="1">
					<dim>1</dim>
					<dim>1</dim>
					<dim>256</dim>
					<dim>128</dim>
				</port>
				<port id="2">
					<dim>1</dim>
					<dim>1</dim>
					<dim>256</dim>
					<dim>128</dim>
				</port>
			</input>
			<output>
				<port id="3" names="data" precision="FP16">
					<dim>1</dim>
					<dim>3</dim>
					<dim>256</dim>
					<dim>128</dim>
				</port>
			</output>
		</layer>
		<layer id="4" name="data/reverse_input_channels4001740023/Concat40064_const1207_const" type="Const" version="opset1">
			<data element_type="f16" offset="8" shape="1,3,1,1" size="6"/>
			<output>
				<port id="0" precision="FP16">
					<dim>1</dim>
					<dim>3</dim>
					<dim>1</dim>
					<dim>1</dim>
				</port>
			</output>
		</layer>
		<layer id="5" name="data/scale/Fused_Mul_" type="Multiply" version="opset1">
			<data auto_broadcast="numpy"/>
			<input>
				<port id="0">
					<dim>1</dim>
					<dim>3</dim>
					<dim>256</dim>
					<dim>128</dim>
				</port>
				<port id="1">
					<dim>1</dim>
					<dim>3</dim>
					<dim>1</dim>
					<dim>1</dim>
				</port>
			</input>
			<output>
				<port id="2" precision="FP16">
					<dim>1</dim>
					<dim>3</dim>
					<dim>256</dim>
					<dim>128</dim>
				</port>
			</output>
		</layer>
		<layer id="6" name="data/reverse_input_channels40019/Concat40048_const1209_const" type="Const" version="opset1">
			<data element_type="f16" offset="14" shape="1,3,1,1" size="6"/>
			<output>
				<port id="0" precision="FP16">
					<dim>1</dim>
					<dim>3</dim>
					<dim>1</dim>
					<dim>1</dim>
				</port>
			</output>
		</layer>
		<layer id="7" name="data/mean/Fused_Add_" type="Add" version="opset1">
			<data auto_broadcast="numpy"/>
			<input>
				<port id="0">
					<dim>1</dim>
					<dim>3</dim>
					<dim>256</dim>
					<dim>128</dim>
				</port>
				<port id="1">
					<dim>1</dim>
					<dim>3</dim>
					<dim>1</dim>
					<dim>1</dim>
				</port>
			</input>
			<output>
				<port id="2" precision="FP16">
					<dim>1</dim>
					<dim>3</dim>
					<dim>256</dim>
					<dim>128</dim>
				</port>
			</output>
		</layer>
		<layer id="8" name="61576161_const" type="Const" version="opset1">
			<data element_type="f16" offset="20" shape="" size="2"/>
			<output>
				<port id="0" precision="FP16"/>
			</output>
		</layer>
		<layer id="9" name="61586162_const" type="Const" version="opset1">
			<data element_type="f16" offset="22" shape="" size="2"/>
			<output>
				<port id="0" precision="FP16"/>
			</output>
		</layer>
		<layer id="10" name="61596163_const" type="Const" version="opset1">
			<data element_type="f16" offset="20" shape="" size="2"/>
			<output>
				<port id="0" precision="FP16"/>
			</output>
		</layer>
		<layer id="11" name="61606164_const" type="Const" version="opset1">
			<data element_type="f16" offset="22" shape="" size="2"/>
			<output>
				<port id="0" precision="FP16"/>
			</output>
		</layer>
		<layer id="12" name="563/Ins_Norm/MVN_/fq_input_0" type="FakeQuantize" version="opset1">
			<data auto_broadcast="numpy" levels="256"/>
			<input>
				<port id="0">
					<dim>1</dim>
					<dim>3</dim>
					<dim>256</dim>
					<dim>128</dim>
				</port>
				<port id="1"/>
				<port id="2"/>
				<port id="3"/>
				<port id="4"/>
			</input>
			<output>
				<port id="5" precision="FP16">
					<dim>1</dim>
					<dim>3</dim>
					<dim>256</dim>
					<dim>128</dim>
				</port>
			</output>
		</layer>
		<layer id="13" name="563/Range_input_port_0/value/Output_0/Data__const1211_const" type="Const" version="opset1">
			<data element_type="i64" offset="24" shape="" size="8"/>
			<output>
				<port id="0" precision="I64"/>
			</output>
		</layer>
		<layer id="14" name="563/Rank/shape_of" type="ShapeOf" version="opset3">
			<data output_type="i64"/>
			<input>
				<port id="0">
					<dim>1</dim>
					<dim>3</dim>
					<dim>256</dim>
					<dim>128</dim>
				</port>
			</input>
			<output>
				<port id="1" precision="I64">
					<dim>4</dim>
				</port>
			</output>
		</layer>
		<layer id="15" name="563/Rank/rank_of" type="ShapeOf" version="opset3">
			<data output_type="i64"/>
			<input>
				<port id="0">
					<dim>4</dim>
				</port>
			</input>
			<output>
				<port id="1" precision="I64">
					<dim>1</dim>
				</port>
			</output>
		</layer>
		<layer id="16" name="563/Rank/0d_rank_of/value/Output_0/Data__const1214_const" type="Const" version="opset1">
			<data element_type="i64" offset="32" shape="1" size="8"/>
			<output>
				<port id="0" precision="I64">
					<dim>1</dim>
				</port>
			</output>
		</layer>
		<layer id="17" name="563/Rank" type="Squeeze" version="opset1">
			<input>
				<port id="0">
					<dim>1</dim>
				</port>
				<port id="1">
					<dim>1</dim>
				</port>
			</input>
			<output>
				<port id="2" precision="I64"/>
			</output>
		</layer>
		<layer id="18" name="563/Range_input_port_2/value/Output_0/Data__const1216_const" type="Const" version="opset1">
			<data element_type="i64" offset="0" shape="" size="8"/>
			<output>
				<port id="0" precision="I64"/>
			</output>
		</layer>
		<layer id="19" name="563/Range" type="Range" version="opset4">
			<data output_type="i64"/>
			<input>
				<port id="0"/>
				<port id="1"/>
				<port id="2"/>
			</input>
			<output>
				<port id="3" precision="I64">
					<dim>2</dim>
				</port>
			</output>
		</layer>
		<layer id="20" name="563/Ins_Norm/MVN_" type="MVN" version="opset6">
			<data eps="9.999999747378752e-06" eps_mode="inside_sqrt" normalize_variance="true"/>
			<input>
				<port id="0">
					<dim>1</dim>
					<dim>3</dim>
					<dim>256</dim>
					<dim>128</dim>
				</port>
				<port id="1">
					<dim>2</dim>
				</port>
			</input>
			<output>
				<port id="2" precision="FP16">
					<dim>1</dim>
					<dim>3</dim>
					<dim>256</dim>
					<dim>128</dim>
				</port>
			</output>
		</layer>
		<layer id="21" name="in_first.weight/EltwiseUnsqueeze23062_const1219_const" type="Const" version="opset1">
			<data element_type="f16" offset="40" shape="1,3,1,1" size="6"/>
			<output>
				<port id="0" names="in_first.weight" precision="FP16">
					<dim>1</dim>
					<dim>3</dim>
					<dim>1</dim>
					<dim>1</dim>
				</port>
			</output>
		</layer>
		<layer id="22" name="563/Ins_Norm/mul_" type="Multiply" version="opset1">
			<data auto_broadcast="numpy"/>
			<input>
				<port id="0">
					<dim>1</dim>
					<dim>3</dim>
					<dim>256</dim>
					<dim>128</dim>
				</port>
				<port id="1">
					<dim>1</dim>
					<dim>3</dim>
					<dim>1</dim>
					<dim>1</dim>
				</port>
			</input>
			<output>
				<port id="2" precision="FP16">
					<dim>1</dim>
					<dim>3</dim>
					<dim>256</dim>
					<dim>128</dim>
				</port>
			</output>
		</layer>
		<layer id="23" name="in_first.bias/EltwiseUnsqueeze23066_const1221_const" type="Const" version="opset1">
			<data element_type="f16" offset="46" shape="1,3,1,1" size="6"/>
			<output>
				<port id="0" names="in_first.bias" precision="FP16">
					<dim>1</dim>
					<dim>3</dim>
					<dim>1</dim>
					<dim>1</dim>
				</port>
			</output>
		</layer>
		<layer id="24" name="563" type="Add" version="opset1">
			<data auto_broadcast="numpy"/>
			<input>
				<port id="0">
					<dim>1</dim>
					<dim>3</dim>
					<dim>256</dim>
					<dim>128</dim>
				</port>
				<port id="1">
					<dim>1</dim>
					<dim>3</dim>
					<dim>1</dim>
					<dim>1</dim>
				</port>
			</input>
			<output>
				<port id="2" names="563" precision="FP16">
					<dim>1</dim>
					<dim>3</dim>
					<dim>256</dim>
					<dim>128</dim>
				</port>
			</output>
		</layer>
		<layer id="25" name="44074411_const" type="Const" version="opset1">
			<data element_type="f16" offset="52" shape="" size="2"/>
			<output>
				<port id="0" precision="FP16"/>
			</output>
		</layer>
		<layer id="26" name="44084412_const" type="Const" version="opset1">
			<data element_type="f16" offset="54" shape="" size="2"/>
			<output>
				<port id="0" precision="FP16"/>
			</output>
		</layer>
		<layer id="27" name="44094413_const" type="Const" version="opset1">
			<data element_type="f16" offset="52" shape="" size="2"/>
			<output>
				<port id="0" precision="FP16"/>
			</output>
		</layer>
		<layer id="28" name="44104414_const" type="Const" version="opset1">
			<data element_type="f16" offset="54" shape="" size="2"/>
			<output>
				<port id="0" precision="FP16"/>
			</output>
		</layer>
		<layer id="29" name="564/fq_input_0" type="FakeQuantize" version="opset1">
			<data auto_broadcast="numpy" levels="256"/>
			<input>
				<port id="0">
					<dim>1</dim>
					<dim>3</dim>
					<dim>256</dim>
					<dim>128</dim>
				</port>
				<port id="1"/>
				<port id="2"/>
				<port id="3"/>
				<port id="4"/>
			</input>
			<output>
				<port id="5" precision="FP16">
					<dim>1</dim>
					<dim>3</dim>
					<dim>256</dim>
					<dim>128</dim>
				</port>
			</output>
		</layer>
		<layer id="30" name="conv1.conv.weight/quantized17547_const" type="Const" version="opset1">
			<data element_type="i8" offset="56" shape="64,3,7,7" size="9408"/>
			<output>
				<port id="0" precision="I8">
					<dim>64</dim>
					<dim>3</dim>
					<dim>7</dim>
					<dim>7</dim>
				</port>
			</output>
		</layer>
		<layer id="31" name="conv1.conv.weight/quantized/to_f16" type="Convert" version="opset1">
			<data destination_type="f16"/>
			<input>
				<port id="0">
					<dim>64</dim>
					<dim>3</dim>
					<dim>7</dim>
					<dim>7</dim>
				</port>
			</input>
			<output>
				<port id="1" precision="FP16">
					<dim>64</dim>
					<dim>3</dim>
					<dim>7</dim>
					<dim>7</dim>
				</port>
			</output>
		</layer>
		<layer id="32" name="564/fq_weights_1/zero_point17560_const" type="Const" version="opset1">
			<data element_type="f16" offset="9464" shape="64,1,1,1" size="128"/>
			<output>
				<port id="0" precision="FP16">
					<dim>64</dim>
					<dim>1</dim>
					<dim>1</dim>
					<dim>1</dim>
				</port>
			</output>
		</layer>
		<layer id="33" name="564/fq_weights_1/minus_zp" type="Subtract" version="opset1">
			<data auto_broadcast="numpy"/>
			<input>
				<port id="0">
					<dim>64</dim>
					<dim>3</dim>
					<dim>7</dim>
					<dim>7</dim>
				</port>
				<port id="1">
					<dim>64</dim>
					<dim>1</dim>
					<dim>1</dim>
					<dim>1</dim>
				</port>
			</input>
			<output>
				<port id="2" precision="FP16">
					<dim>64</dim>
					<dim>3</dim>
					<dim>7</dim>
					<dim>7</dim>
				</port>
			</output>
		</layer>
		<layer id="34" name="564/fq_weights_1/scale17555_const" type="Const" version="opset1">
			<data element_type="f16" offset="9592" shape="64,1,1,1" size="128"/>
			<output>
				<port id="0" precision="FP16">
					<dim>64</dim>
					<dim>1</dim>
					<dim>1</dim>
					<dim>1</dim>
				</port>
			</output>
		</layer>
		<layer id="35" name="564/fq_weights_1/mulpiply_by_scale" type="Multiply" version="opset1">
			<data auto_broadcast="numpy"/>
			<input>
				<port id="0">
					<dim>64</dim>
					<dim>3</dim>
					<dim>7</dim>
					<dim>7</dim>
				</port>
				<port id="1">
					<dim>64</dim>
					<dim>1</dim>
					<dim>1</dim>
					<dim>1</dim>
				</port>
			</input>
			<output>
				<port id="2" precision="FP16">
					<dim>64</dim>
					<dim>3</dim>
					<dim>7</dim>
					<dim>7</dim>
				</port>
			</output>
		</layer>
		<layer id="36" name="564" type="Convolution" version="opset1">
			<data auto_pad="explicit" dilations="1,1" pads_begin="3,3" pads_end="3,3" strides="2,2"/>
			<input>
				<port id="0">
					<dim>1</dim>
					<dim>3</dim>
					<dim>256</dim>
					<dim>128</dim>
				</port>
				<port id="1">
					<dim>64</dim>
					<dim>3</dim>
					<dim>7</dim>
					<dim>7</dim>
				</port>
			</input>
			<output>
				<port id="2" names="564" precision="FP16">
					<dim>1</dim>
					<dim>64</dim>
					<dim>128</dim>
					<dim>64</dim>
				</port>
			</output>
		</layer>
		<layer id="37" name="28682870_const" type="Const" version="opset1">
			<data element_type="f16" offset="9720" shape="1,64,1,1" size="128"/>
			<output>
				<port id="0" precision="FP16">
					<dim>1</dim>
					<dim>64</dim>
					<dim>1</dim>
					<dim>1</dim>
				</port>
			</output>
		</layer>
		<layer id="38" name="564/add_" type="Add" version="opset1">
			<data auto_broadcast="numpy"/>
			<input>
				<port id="0">
					<dim>1</dim>
					<dim>64</dim>
					<dim>128</dim>
					<dim>64</dim>
				</port>
				<port id="1">
					<dim>1</dim>
					<dim>64</dim>
					<dim>1</dim>
					<dim>1</dim>
				</port>
			</input>
			<output>
				<port id="2" precision="FP16">
					<dim>1</dim>
					<dim>64</dim>
					<dim>128</dim>
					<dim>64</dim>
				</port>
			</output>
		</layer>
		<layer id="39" name="76677671_const" type="Const" version="opset1">
			<data element_type="f16" offset="9848" shape="" size="2"/>
			<output>
				<port id="0" precision="FP16"/>
			</output>
		</layer>
		<layer id="40" name="76687672_const" type="Const" version="opset1">
			<data element_type="f16" offset="9850" shape="" size="2"/>
			<output>
				<port id="0" precision="FP16"/>
			</output>
		</layer>
		<layer id="41" name="76697673_const" type="Const" version="opset1">
			<data element_type="f16" offset="9848" shape="" size="2"/>
			<output>
				<port id="0" precision="FP16"/>
			</output>
		</layer>
		<layer id="42" name="76707674_const" type="Const" version="opset1">
			<data element_type="f16" offset="9850" shape="" size="2"/>
			<output>
				<port id="0" precision="FP16"/>
			</output>
		</layer>
		<layer id="43" name="565/Ins_Norm/MVN_/fq_input_0" type="FakeQuantize" version="opset1">
			<data auto_broadcast="numpy" levels="256"/>
			<input>
				<port id="0">
					<dim>1</dim>
					<dim>64</dim>
					<dim>128</dim>
					<dim>64</dim>
				</port>
				<port id="1"/>
				<port id="2"/>
				<port id="3"/>
				<port id="4"/>
			</input>
			<output>
				<port id="5" precision="FP16">
					<dim>1</dim>
					<dim>64</dim>
					<dim>128</dim>
					<dim>64</dim>
				</port>
			</output>
		</layer>
		<layer id="44" name="565/Range_input_port_0/value/Output_0/Data__const1225_const" type="Const" version="opset1">
			<data element_type="i64" offset="24" shape="" size="8"/>
			<output>
				<port id="0" precision="I64"/>
			</output>
		</layer>
		<layer id="45" name="565/Rank/shape_of" type="ShapeOf" version="opset3">
			<data output_type="i64"/>
			<input>
				<port id="0">
					<dim>1</dim>
					<dim>64</dim>
					<dim>128</dim>
					<dim>64</dim>
				</port>
			</input>
			<output>
				<port id="1" precision="I64">
					<dim>4</dim>
				</port>
			</output>
		</layer>
		<layer id="46" name="565/Rank/rank_of" type="ShapeOf" version="opset3">
			<data output_type="i64"/>
			<input>
				<port id="0">
					<dim>4</dim>
				</port>
			</input>
			<output>
				<port id="1" precision="I64">
					<dim>1</dim>
				</port>
			</output>
		</layer>
		<layer id="47" name="565/Rank/0d_rank_of/value/Output_0/Data__const1228_const" type="Const" version="opset1">
			<data element_type="i64" offset="32" shape="1" size="8"/>
			<output>
				<port id="0" precision="I64">
					<dim>1</dim>
				</port>
			</output>
		</layer>
		<layer id="48" name="565/Rank" type="Squeeze" version="opset1">
			<input>
				<port id="0">
					<dim>1</dim>
				</port>
				<port id="1">
					<dim>1</dim>
				</port>
			</input>
			<output>
				<port id="2" precision="I64"/>
			</output>
		</layer>
		<layer id="49" name="565/Range_input_port_2/value/Output_0/Data__const1230_const" type="Const" version="opset1">
			<data element_type="i64" offset="0" shape="" size="8"/>
			<output>
				<port id="0" precision="I64"/>
			</output>
		</layer>
		<layer id="50" name="565/Range" type="Range" version="opset4">
			<data output_type="i64"/>
			<input>
				<port id="0"/>
				<port id="1"/>
				<port id="2"/>
			</input>
			<output>
				<port id="3" precision="I64">
					<dim>2</dim>
				</port>
			</output>
		</layer>
		<layer id="51" name="565/Ins_Norm/MVN_" type="MVN" version="opset6">
			<data eps="9.999999747378752e-06" eps_mode="inside_sqrt" normalize_variance="true"/>
			<input>
				<port id="0">
					<dim>1</dim>
					<dim>64</dim>
					<dim>128</dim>
					<dim>64</dim>
				</port>
				<port id="1">
					<dim>2</dim>
				</port>
			</input>
			<output>
				<port id="2" precision="FP16">
					<dim>1</dim>
					<dim>64</dim>
					<dim>128</dim>
					<dim>64</dim>
				</port>
			</output>
		</layer>
		<layer id="52" name="conv1.bn.weight/EltwiseUnsqueeze23038_const1233_const" type="Const" version="opset1">
			<data element_type="f16" offset="9852" shape="1,64,1,1" size="128"/>
			<output>
				<port id="0" names="conv1.bn.weight" precision="FP16">
					<dim>1</dim>
					<dim>64</dim>
					<dim>1</dim>
					<dim>1</dim>
				</port>
			</output>
		</layer>
		<layer id="53" name="565/Ins_Norm/mul_" type="Multiply" version="opset1">
			<data auto_broadcast="numpy"/>
			<input>
				<port id="0">
					<dim>1</dim>
					<dim>64</dim>
					<dim>128</dim>
					<dim>64</dim>
				</port>
				<port id="1">
					<dim>1</dim>
					<dim>64</dim>
					<dim>1</dim>
					<dim>1</dim>
				</port>
			</input>
			<output>
				<port id="2" precision="FP16">
					<dim>1</dim>
					<dim>64</dim>
					<dim>128</dim>
					<dim>64</dim>
				</port>
			</output>
		</layer>
		<layer id="54" name="conv1.bn.bias/EltwiseUnsqueeze23042_const1235_const" type="Const" version="opset1">
			<data element_type="f16" offset="9980" shape="1,64,1,1" size="128"/>
			<output>
				<port id="0" names="conv1.bn.bias" precision="FP16">
					<dim>1</dim>
					<dim>64</dim>
					<dim>1</dim>
					<dim>1</dim>
				</port>
			</output>
		</layer>
		<layer id="55" name="565" type="Add" version="opset1">
			<data auto_broadcast="numpy"/>
			<input>
				<port id="0">
					<dim>1</dim>
					<dim>64</dim>
					<dim>128</dim>
					<dim>64</dim>
				</port>
				<port id="1">
					<dim>1</dim>
					<dim>64</dim>
					<dim>1</dim>
					<dim>1</dim>
				</port>
			</input>
			<output>
				<port id="2" names="565" precision="FP16">
					<dim>1</dim>
					<dim>64</dim>
					<dim>128</dim>
					<dim>64</dim>
				</port>
			</output>
		</layer>
		<layer id="56" name="566" type="ReLU" version="opset1">
			<input>
				<port id="0">
					<dim>1</dim>
					<dim>64</dim>
					<dim>128</dim>
					<dim>64</dim>
				</port>
			</input>
			<output>
				<port id="1" names="566" precision="FP16">
					<dim>1</dim>
					<dim>64</dim>
					<dim>128</dim>
					<dim>64</dim>
				</port>
			</output>
		</layer>
		<layer id="57" name="1082810832_const" type="Const" version="opset1">
			<data element_type="f16" offset="10108" shape="" size="2"/>
			<output>
				<port id="0" precision="FP16"/>
			</output>
		</layer>
		<layer id="58" name="1082910833_const" type="Const" version="opset1">
			<data element_type="f16" offset="10110" shape="" size="2"/>
			<output>
				<port id="0" precision="FP16"/>
			</output>
		</layer>
		<layer id="59" name="1083010834_const" type="Const" version="opset1">
			<data element_type="f16" offset="10108" shape="" size="2"/>
			<output>
				<port id="0" precision="FP16"/>
			</output>
		</layer>
		<layer id="60" name="1083110835_const" type="Const" version="opset1">
			<data element_type="f16" offset="10110" shape="" size="2"/>
			<output>
				<port id="0" precision="FP16"/>
			</output>
		</layer>
		<layer id="61" name="567/fq_input_0" type="FakeQuantize" version="opset1">
			<data auto_broadcast="numpy" levels="256"/>
			<input>
				<port id="0">
					<dim>1</dim>
					<dim>64</dim>
					<dim>128</dim>
					<dim>64</dim>
				</port>
				<port id="1"/>
				<port id="2"/>
				<port id="3"/>
				<port id="4"/>
			</input>
			<output>
				<port id="5" precision="FP16">
					<dim>1</dim>
					<dim>64</dim>
					<dim>128</dim>
					<dim>64</dim>
				</port>
			</output>
		</layer>
		<layer id="62" name="567" type="MaxPool" version="opset1">
			<data auto_pad="explicit" kernel="3,3" pads_begin="1,1" pads_end="1,1" rounding_type="floor" strides="2,2"/>
			<input>
				<port id="0">
					<dim>1</dim>
					<dim>64</dim>
					<dim>128</dim>
					<dim>64</dim>
				</port>
			</input>
			<output>
				<port id="1" names="567" precision="FP16">
					<dim>1</dim>
					<dim>64</dim>
					<dim>64</dim>
					<dim>32</dim>
				</port>
			</output>
		</layer>
		<layer id="63" name="569/mean/Fused_Mul_2435924361_const123915327/quantized20283_const" type="Const" version="opset1">
			<data element_type="i8" offset="10112" shape="64,64,1,1" size="4096"/>
			<output>
				<port id="0" precision="I8">
					<dim>64</dim>
					<dim>64</dim>
					<dim>1</dim>
					<dim>1</dim>
				</port>
			</output>
		</layer>
		<layer id="64" name="569/mean/Fused_Mul_2435924361_const123915327/quantized/to_f16" type="Convert" version="opset1">
			<data destination_type="f16"/>
			<input>
				<port id="0">
					<dim>64</dim>
					<dim>64</dim>
					<dim>1</dim>
					<dim>1</dim>
				</port>
			</input>
			<output>
				<port id="1" precision="FP16">
					<dim>64</dim>
					<dim>64</dim>
					<dim>1</dim>
					<dim>1</dim>
				</port>
			</output>
		</layer>
		<layer id="65" name="568/fq_weights_1/zero_point20296_const" type="Const" version="opset1">
			<data element_type="f16" offset="14208" shape="64,1,1,1" size="128"/>
			<output>
				<port id="0" precision="FP16">
					<dim>64</dim>
					<dim>1</dim>
					<dim>1</dim>
					<dim>1</dim>
				</port>
			</output>
		</layer>
		<layer id="66" name="568/fq_weights_1/minus_zp" type="Subtract" version="opset1">
			<data auto_broadcast="numpy"/>
			<input>
				<port id="0">
					<dim>64</dim>
					<dim>64</dim>
					<dim>1</dim>
					<dim>1</dim>
				</port>
				<port id="1">
					<dim>64</dim>
					<dim>1</dim>
					<dim>1</dim>
					<dim>1</dim>
				</port>
			</input>
			<output>
				<port id="2" precision="FP16">
					<dim>64</dim>
					<dim>64</dim>
					<dim>1</dim>
					<dim>1</dim>
				</port>
			</output>
		</layer>
		<layer id="67" name="568/fq_weights_1/scale20291_const" type="Const" version="opset1">
			<data element_type="f16" offset="14336" shape="64,1,1,1" size="128"/>
			<output>
				<port id="0" precision="FP16">
					<dim>64</dim>
					<dim>1</dim>
					<dim>1</dim>
					<dim>1</dim>
				</port>
			</output>
		</layer>
		<layer id="68" name="568/fq_weights_1/mulpiply_by_scale" type="Multiply" version="opset1">
			<data auto_broadcast="numpy"/>
			<input>
				<port id="0">
					<dim>64</dim>
					<dim>64</dim>
					<dim>1</dim>
					<dim>1</dim>
				</port>
				<port id="1">
					<dim>64</dim>
					<dim>1</dim>
					<dim>1</dim>
					<dim>1</dim>
				</port>
			</input>
			<output>
				<port id="2" precision="FP16">
					<dim>64</dim>
					<dim>64</dim>
					<dim>1</dim>
					<dim>1</dim>
				</port>
			</output>
		</layer>
		<layer id="69" name="568" type="Convolution" version="opset1">
			<data auto_pad="explicit" dilations="1,1" pads_begin="0,0" pads_end="0,0" strides="1,1"/>
			<input>
				<port id="0">
					<dim>1</dim>
					<dim>64</dim>
					<dim>64</dim>
					<dim>32</dim>
				</port>
				<port id="1">
					<dim>64</dim>
					<dim>64</dim>
					<dim>1</dim>
					<dim>1</dim>
				</port>
			</input>
			<output>
				<port id="2" precision="FP16">
					<dim>1</dim>
					<dim>64</dim>
					<dim>64</dim>
					<dim>32</dim>
				</port>
			</output>
		</layer>
		<layer id="70" name="data_add_217012170622712/EltwiseUnsqueeze23194_const1241_const" type="Const" version="opset1">
			<data element_type="f16" offset="14464" shape="1,64,1,1" size="128"/>
			<output>
				<port id="0" precision="FP16">
					<dim>1</dim>
					<dim>64</dim>
					<dim>1</dim>
					<dim>1</dim>
				</port>
			</output>
		</layer>
		<layer id="71" name="569/variance/Fused_Add_" type="Add" version="opset1">
			<data auto_broadcast="numpy"/>
			<input>
				<port id="0">
					<dim>1</dim>
					<dim>64</dim>
					<dim>64</dim>
					<dim>32</dim>
				</port>
				<port id="1">
					<dim>1</dim>
					<dim>64</dim>
					<dim>1</dim>
					<dim>1</dim>
				</port>
			</input>
			<output>
				<port id="2" names="569" precision="FP16">
					<dim>1</dim>
					<dim>64</dim>
					<dim>64</dim>
					<dim>32</dim>
				</port>
			</output>
		</layer>
		<layer id="72" name="570" type="ReLU" version="opset1">
			<input>
				<port id="0">
					<dim>1</dim>
					<dim>64</dim>
					<dim>64</dim>
					<dim>32</dim>
				</port>
			</input>
			<output>
				<port id="1" names="570" precision="FP16">
					<dim>1</dim>
					<dim>64</dim>
					<dim>64</dim>
					<dim>32</dim>
				</port>
			</output>
		</layer>
		<layer id="73" name="45474551_const" type="Const" version="opset1">
			<data element_type="f16" offset="10108" shape="" size="2"/>
			<output>
				<port id="0" precision="FP16"/>
			</output>
		</layer>
		<layer id="74" name="45484552_const" type="Const" version="opset1">
			<data element_type="f16" offset="14592" shape="" size="2"/>
			<output>
				<port id="0" precision="FP16"/>
			</output>
		</layer>
		<layer id="75" name="45494553_const" type="Const" version="opset1">
			<data element_type="f16" offset="10108" shape="" size="2"/>
			<output>
				<port id="0" precision="FP16"/>
			</output>
		</layer>
		<layer id="76" name="45504554_const" type="Const" version="opset1">
			<data element_type="f16" offset="14592" shape="" size="2"/>
			<output>
				<port id="0" precision="FP16"/>
			</output>
		</layer>
		<layer id="77" name="571/fq_input_0" type="FakeQuantize" version="opset1">
			<data auto_broadcast="numpy" levels="256"/>
			<input>
				<port id="0">
					<dim>1</dim>
					<dim>64</dim>
					<dim>64</dim>
					<dim>32</dim>
				</port>
				<port id="1"/>
				<port id="2"/>
				<port id="3"/>
				<port id="4"/>
			</input>
			<output>
				<port id="5" precision="FP16">
					<dim>1</dim>
					<dim>64</dim>
					<dim>64</dim>
					<dim>32</dim>
				</port>
			</output>
		</layer>
		<layer id="78" name="conv2.0.conv2a.conv1.weight/quantized19155_const" type="Const" version="opset1">
			<data element_type="i8" offset="14594" shape="64,64,1,1" size="4096"/>
			<output>
				<port id="0" precision="I8">
					<dim>64</dim>
					<dim>64</dim>
					<dim>1</dim>
					<dim>1</dim>
				</port>
			</output>
		</layer>
		<layer id="79" name="conv2.0.conv2a.conv1.weight/quantized/to_f16" type="Convert" version="opset1">
			<data destination_type="f16"/>
			<input>
				<port id="0">
					<dim>64</dim>
					<dim>64</dim>
					<dim>1</dim>
					<dim>1</dim>
				</port>
			</input>
			<output>
				<port id="1" precision="FP16">
					<dim>64</dim>
					<dim>64</dim>
					<dim>1</dim>
					<dim>1</dim>
				</port>
			</output>
		</layer>
		<layer id="80" name="571/fq_weights_1/zero_point19168_const" type="Const" version="opset1">
			<data element_type="f16" offset="18690" shape="64,1,1,1" size="128"/>
			<output>
				<port id="0" precision="FP16">
					<dim>64</dim>
					<dim>1</dim>
					<dim>1</dim>
					<dim>1</dim>
				</port>
			</output>
		</layer>
		<layer id="81" name="571/fq_weights_1/minus_zp" type="Subtract" version="opset1">
			<data auto_broadcast="numpy"/>
			<input>
				<port id="0">
					<dim>64</dim>
					<dim>64</dim>
					<dim>1</dim>
					<dim>1</dim>
				</port>
				<port id="1">
					<dim>64</dim>
					<dim>1</dim>
					<dim>1</dim>
					<dim>1</dim>
				</port>
			</input>
			<output>
				<port id="2" precision="FP16">
					<dim>64</dim>
					<dim>64</dim>
					<dim>1</dim>
					<dim>1</dim>
				</port>
			</output>
		</layer>
		<layer id="82" name="571/fq_weights_1/scale19163_const" type="Const" version="opset1">
			<data element_type="f16" offset="18818" shape="64,1,1,1" size="128"/>
			<output>
				<port id="0" precision="FP16">
					<dim>64</dim>
					<dim>1</dim>
					<dim>1</dim>
					<dim>1</dim>
				</port>
			</output>
		</layer>
		<layer id="83" name="571/fq_weights_1/mulpiply_by_scale" type="Multiply" version="opset1">
			<data auto_broadcast="numpy"/>
			<input>
				<port id="0">
					<dim>64</dim>
					<dim>64</dim>
					<dim>1</dim>
					<dim>1</dim>
				</port>
				<port id="1">
					<dim>64</dim>
					<dim>1</dim>
					<dim>1</dim>
					<dim>1</dim>
				</port>
			</input>
			<output>
				<port id="2" precision="FP16">
					<dim>64</dim>
					<dim>64</dim>
					<dim>1</dim>
					<dim>1</dim>
				</port>
			</output>
		</layer>
		<layer id="84" name="571" type="Convolution" version="opset1">
			<data auto_pad="explicit" dilations="1,1" pads_begin="0,0" pads_end="0,0" strides="1,1"/>
			<input>
				<port id="0">
					<dim>1</dim>
					<dim>64</dim>
					<dim>64</dim>
					<dim>32</dim>
				</port>
				<port id="1">
					<dim>64</dim>
					<dim>64</dim>
					<dim>1</dim>
					<dim>1</dim>
				</port>
			</input>
			<output>
				<port id="2" names="571" precision="FP16">
					<dim>1</dim>
					<dim>64</dim>
					<dim>64</dim>
					<dim>32</dim>
				</port>
			</output>
		</layer>
		<layer id="85" name="28722874_const" type="Const" version="opset1">
			<data element_type="f16" offset="9720" shape="1,64,1,1" size="128"/>
			<output>
				<port id="0" precision="FP16">
					<dim>1</dim>
					<dim>64</dim>
					<dim>1</dim>
					<dim>1</dim>
				</port>
			</output>
		</layer>
		<layer id="86" name="571/add_" type="Add" version="opset1">
			<data auto_broadcast="numpy"/>
			<input>
				<port id="0">
					<dim>1</dim>
					<dim>64</dim>
					<dim>64</dim>
					<dim>32</dim>
				</port>
				<port id="1">
					<dim>1</dim>
					<dim>64</dim>
					<dim>1</dim>
					<dim>1</dim>
				</port>
			</input>
			<output>
				<port id="2" precision="FP16">
					<dim>1</dim>
					<dim>64</dim>
					<dim>64</dim>
					<dim>32</dim>
				</port>
			</output>
		</layer>
		<layer id="87" name="64576461_const" type="Const" version="opset1">
			<data element_type="f16" offset="18946" shape="1,64,1,1" size="128"/>
			<output>
				<port id="0" precision="FP16">
					<dim>1</dim>
					<dim>64</dim>
					<dim>1</dim>
					<dim>1</dim>
				</port>
			</output>
		</layer>
		<layer id="88" name="64586462_const" type="Const" version="opset1">
			<data element_type="f16" offset="19074" shape="1,64,1,1" size="128"/>
			<output>
				<port id="0" precision="FP16">
					<dim>1</dim>
					<dim>64</dim>
					<dim>1</dim>
					<dim>1</dim>
				</port>
			</output>
		</layer>
		<layer id="89" name="64596463_const" type="Const" version="opset1">
			<data element_type="f16" offset="18946" shape="1,64,1,1" size="128"/>
			<output>
				<port id="0" precision="FP16">
					<dim>1</dim>
					<dim>64</dim>
					<dim>1</dim>
					<dim>1</dim>
				</port>
			</output>
		</layer>
		<layer id="90" name="64606464_const" type="Const" version="opset1">
			<data element_type="f16" offset="19074" shape="1,64,1,1" size="128"/>
			<output>
				<port id="0" precision="FP16">
					<dim>1</dim>
					<dim>64</dim>
					<dim>1</dim>
					<dim>1</dim>
				</port>
			</output>
		</layer>
		<layer id="91" name="572/fq_input_0" type="FakeQuantize" version="opset1">
			<data auto_broadcast="numpy" levels="256"/>
			<input>
				<port id="0">
					<dim>1</dim>
					<dim>64</dim>
					<dim>64</dim>
					<dim>32</dim>
				</port>
				<port id="1">
					<dim>1</dim>
					<dim>64</dim>
					<dim>1</dim>
					<dim>1</dim>
				</port>
				<port id="2">
					<dim>1</dim>
					<dim>64</dim>
					<dim>1</dim>
					<dim>1</dim>
				</port>
				<port id="3">
					<dim>1</dim>
					<dim>64</dim>
					<dim>1</dim>
					<dim>1</dim>
				</port>
				<port id="4">
					<dim>1</dim>
					<dim>64</dim>
					<dim>1</dim>
					<dim>1</dim>
				</port>
			</input>
			<output>
				<port id="5" precision="FP16">
					<dim>1</dim>
					<dim>64</dim>
					<dim>64</dim>
					<dim>32</dim>
				</port>
			</output>
		</layer>
		<layer id="92" name="4207142074_const124615330/quantized20355_const" type="Const" version="opset1">
			<data element_type="i8" offset="19202" shape="64,1,3,3" size="576"/>
			<output>
				<port id="0" precision="I8">
					<dim>64</dim>
					<dim>1</dim>
					<dim>3</dim>
					<dim>3</dim>
				</port>
			</output>
		</layer>
		<layer id="93" name="4207142074_const124615330/quantized/to_f16" type="Convert" version="opset1">
			<data destination_type="f16"/>
			<input>
				<port id="0">
					<dim>64</dim>
					<dim>1</dim>
					<dim>3</dim>
					<dim>3</dim>
				</port>
			</input>
			<output>
				<port id="1" precision="FP16">
					<dim>64</dim>
					<dim>1</dim>
					<dim>3</dim>
					<dim>3</dim>
				</port>
			</output>
		</layer>
		<layer id="94" name="572/fq_weights_1/zero_point20368_const" type="Const" version="opset1">
			<data element_type="f16" offset="19778" shape="64,1,1,1" size="128"/>
			<output>
				<port id="0" precision="FP16">
					<dim>64</dim>
					<dim>1</dim>
					<dim>1</dim>
					<dim>1</dim>
				</port>
			</output>
		</layer>
		<layer id="95" name="572/fq_weights_1/minus_zp" type="Subtract" version="opset1">
			<data auto_broadcast="numpy"/>
			<input>
				<port id="0">
					<dim>64</dim>
					<dim>1</dim>
					<dim>3</dim>
					<dim>3</dim>
				</port>
				<port id="1">
					<dim>64</dim>
					<dim>1</dim>
					<dim>1</dim>
					<dim>1</dim>
				</port>
			</input>
			<output>
				<port id="2" precision="FP16">
					<dim>64</dim>
					<dim>1</dim>
					<dim>3</dim>
					<dim>3</dim>
				</port>
			</output>
		</layer>
		<layer id="96" name="572/fq_weights_1/scale20363_const" type="Const" version="opset1">
			<data element_type="f16" offset="19906" shape="64,1,1,1" size="128"/>
			<output>
				<port id="0" precision="FP16">
					<dim>64</dim>
					<dim>1</dim>
					<dim>1</dim>
					<dim>1</dim>
				</port>
			</output>
		</layer>
		<layer id="97" name="572/fq_weights_1/mulpiply_by_scale" type="Multiply" version="opset1">
			<data auto_broadcast="numpy"/>
			<input>
				<port id="0">
					<dim>64</dim>
					<dim>1</dim>
					<dim>3</dim>
					<dim>3</dim>
				</port>
				<port id="1">
					<dim>64</dim>
					<dim>1</dim>
					<dim>1</dim>
					<dim>1</dim>
				</port>
			</input>
			<output>
				<port id="2" precision="FP16">
					<dim>64</dim>
					<dim>1</dim>
					<dim>3</dim>
					<dim>3</dim>
				</port>
			</output>
		</layer>
		<layer id="98" name="24412/value24414_const" type="Const" version="opset1">
			<data element_type="i64" offset="20034" shape="5" size="40"/>
			<output>
				<port id="0" precision="I64">
					<dim>5</dim>
				</port>
			</output>
		</layer>
		<layer id="99" name="24412" type="Reshape" version="opset1">
			<data special_zero="true"/>
			<input>
				<port id="0">
					<dim>64</dim>
					<dim>1</dim>
					<dim>3</dim>
					<dim>3</dim>
				</port>
				<port id="1">
					<dim>5</dim>
				</port>
			</input>
			<output>
				<port id="2" precision="FP16">
					<dim>64</dim>
					<dim>1</dim>
					<dim>1</dim>
					<dim>3</dim>
					<dim>3</dim>
				</port>
			</output>
		</layer>
		<layer id="100" name="572" type="GroupConvolution" version="opset1">
			<data auto_pad="explicit" dilations="1,1" pads_begin="1,1" pads_end="1,1" strides="1,1"/>
			<input>
				<port id="0">
					<dim>1</dim>
					<dim>64</dim>
					<dim>64</dim>
					<dim>32</dim>
				</port>
				<port id="1">
					<dim>64</dim>
					<dim>1</dim>
					<dim>1</dim>
					<dim>3</dim>
					<dim>3</dim>
				</port>
			</input>
			<output>
				<port id="2" precision="FP16">
					<dim>1</dim>
					<dim>64</dim>
					<dim>64</dim>
					<dim>32</dim>
				</port>
			</output>
		</layer>
		<layer id="101" name="data_add_217812178622732/EltwiseUnsqueeze23274_const1248_const" type="Const" version="opset1">
			<data element_type="f16" offset="20074" shape="1,64,1,1" size="128"/>
			<output>
				<port id="0" precision="FP16">
					<dim>1</dim>
					<dim>64</dim>
					<dim>1</dim>
					<dim>1</dim>
				</port>
			</output>
		</layer>
		<layer id="102" name="573/variance/Fused_Add_" type="Add" version="opset1">
			<data auto_broadcast="numpy"/>
			<input>
				<port id="0">
					<dim>1</dim>
					<dim>64</dim>
					<dim>64</dim>
					<dim>32</dim>
				</port>
				<port id="1">
					<dim>1</dim>
					<dim>64</dim>
					<dim>1</dim>
					<dim>1</dim>
				</port>
			</input>
			<output>
				<port id="2" names="573" precision="FP16">
					<dim>1</dim>
					<dim>64</dim>
					<dim>64</dim>
					<dim>32</dim>
				</port>
			</output>
		</layer>
		<layer id="103" name="574" type="ReLU" version="opset1">
			<input>
				<port id="0">
					<dim>1</dim>
					<dim>64</dim>
					<dim>64</dim>
					<dim>32</dim>
				</port>
			</input>
			<output>
				<port id="1" names="574" precision="FP16">
					<dim>1</dim>
					<dim>64</dim>
					<dim>64</dim>
					<dim>32</dim>
				</port>
			</output>
		</layer>
		<layer id="104" name="75477551_const" type="Const" version="opset1">
			<data element_type="f16" offset="10108" shape="" size="2"/>
			<output>
				<port id="0" precision="FP16"/>
			</output>
		</layer>
		<layer id="105" name="75487552_const" type="Const" version="opset1">
			<data element_type="f16" offset="20202" shape="" size="2"/>
			<output>
				<port id="0" precision="FP16"/>
			</output>
		</layer>
		<layer id="106" name="75497553_const" type="Const" version="opset1">
			<data element_type="f16" offset="10108" shape="" size="2"/>
			<output>
				<port id="0" precision="FP16"/>
			</output>
		</layer>
		<layer id="107" name="75507554_const" type="Const" version="opset1">
			<data element_type="f16" offset="20202" shape="" size="2"/>
			<output>
				<port id="0" precision="FP16"/>
			</output>
		</layer>
		<layer id="108" name="611/reduce/fq_input_0" type="FakeQuantize" version="opset1">
			<data auto_broadcast="numpy" levels="256"/>
			<input>
				<port id="0">
					<dim>1</dim>
					<dim>64</dim>
					<dim>64</dim>
					<dim>32</dim>
				</port>
				<port id="1"/>
				<port id="2"/>
				<port id="3"/>
				<port id="4"/>
			</input>
			<output>
				<port id="5" precision="FP16">
					<dim>1</dim>
					<dim>64</dim>
					<dim>64</dim>
					<dim>32</dim>
				</port>
			</output>
		</layer>
		<layer id="109" name="1324/Output_0/Data__const1251_const" type="Const" version="opset1">
			<data element_type="i64" offset="24" shape="" size="8"/>
			<output>
				<port id="0" precision="I64"/>
			</output>
		</layer>
		<layer id="110" name="611/input_rank/shape_of" type="ShapeOf" version="opset3">
			<data output_type="i64"/>
			<input>
				<port id="0">
					<dim>1</dim>
					<dim>64</dim>
					<dim>64</dim>
					<dim>32</dim>
				</port>
			</input>
			<output>
				<port id="1" precision="I64">
					<dim>4</dim>
				</port>
			</output>
		</layer>
		<layer id="111" name="611/input_rank/rank_of" type="ShapeOf" version="opset3">
			<data output_type="i64"/>
			<input>
				<port id="0">
					<dim>4</dim>
				</port>
			</input>
			<output>
				<port id="1" precision="I64">
					<dim>1</dim>
				</port>
			</output>
		</layer>
		<layer id="112" name="611/input_rank/0d_rank_of/value/Output_0/Data__const1254_const" type="Const" version="opset1">
			<data element_type="i64" offset="32" shape="1" size="8"/>
			<output>
				<port id="0" precision="I64">
					<dim>1</dim>
				</port>
			</output>
		</layer>
		<layer id="113" name="611/input_rank" type="Squeeze" version="opset1">
			<input>
				<port id="0">
					<dim>1</dim>
				</port>
				<port id="1">
					<dim>1</dim>
				</port>
			</input>
			<output>
				<port id="2" precision="I64"/>
			</output>
		</layer>
		<layer id="114" name="1326/Output_0/Data__const1256_const" type="Const" version="opset1">
			<data element_type="i64" offset="0" shape="" size="8"/>
			<output>
				<port id="0" precision="I64"/>
			</output>
		</layer>
		<layer id="115" name="611/global_pooling_reduce_axis" type="Range" version="opset4">
			<data output_type="i64"/>
			<input>
				<port id="0"/>
				<port id="1"/>
				<port id="2"/>
			</input>
			<output>
				<port id="3" precision="I64">
					<dim>2</dim>
				</port>
			</output>
		</layer>
		<layer id="116" name="611/reduce" type="ReduceMean" version="opset1">
			<data keep_dims="true"/>
			<input>
				<port id="0">
					<dim>1</dim>
					<dim>64</dim>
					<dim>64</dim>
					<dim>32</dim>
				</port>
				<port id="1">
					<dim>2</dim>
				</port>
			</input>
			<output>
				<port id="2" names="611" precision="FP16">
					<dim>1</dim>
					<dim>64</dim>
					<dim>1</dim>
					<dim>1</dim>
				</port>
			</output>
		</layer>
		<layer id="117" name="Copy_conv2.0.gate.fc1.weight/Output_0/Data__const1259_const" type="Const" version="opset1">
			<data element_type="f16" offset="20204" shape="4,64,1,1" size="512"/>
			<output>
				<port id="0" names="conv2.0.gate.fc1.weight" precision="FP16">
					<dim>4</dim>
					<dim>64</dim>
					<dim>1</dim>
					<dim>1</dim>
				</port>
			</output>
		</layer>
		<layer id="118" name="612/WithoutBiases" type="Convolution" version="opset1">
			<data auto_pad="explicit" dilations="1,1" pads_begin="0,0" pads_end="0,0" strides="1,1"/>
			<input>
				<port id="0">
					<dim>1</dim>
					<dim>64</dim>
					<dim>1</dim>
					<dim>1</dim>
				</port>
				<port id="1">
					<dim>4</dim>
					<dim>64</dim>
					<dim>1</dim>
					<dim>1</dim>
				</port>
			</input>
			<output>
				<port id="2" precision="FP16">
					<dim>1</dim>
					<dim>4</dim>
					<dim>1</dim>
					<dim>1</dim>
				</port>
			</output>
		</layer>
		<layer id="119" name="612/Dims1294022692/EltwiseUnsqueeze23122_const1261_const" type="Const" version="opset1">
			<data element_type="f16" offset="20716" shape="1,4,1,1" size="8"/>
			<output>
				<port id="0" precision="FP16">
					<dim>1</dim>
					<dim>4</dim>
					<dim>1</dim>
					<dim>1</dim>
				</port>
			</output>
		</layer>
		<layer id="120" name="612" type="Add" version="opset1">
			<data auto_broadcast="numpy"/>
			<input>
				<port id="0">
					<dim>1</dim>
					<dim>4</dim>
					<dim>1</dim>
					<dim>1</dim>
				</port>
				<port id="1">
					<dim>1</dim>
					<dim>4</dim>
					<dim>1</dim>
					<dim>1</dim>
				</port>
			</input>
			<output>
				<port id="2" names="612" precision="FP16">
					<dim>1</dim>
					<dim>4</dim>
					<dim>1</dim>
					<dim>1</dim>
				</port>
			</output>
		</layer>
		<layer id="121" name="613" type="ReLU" version="opset1">
			<input>
				<port id="0">
					<dim>1</dim>
					<dim>4</dim>
					<dim>1</dim>
					<dim>1</dim>
				</port>
			</input>
			<output>
				<port id="1" names="613" precision="FP16">
					<dim>1</dim>
					<dim>4</dim>
					<dim>1</dim>
					<dim>1</dim>
				</port>
			</output>
		</layer>
		<layer id="122" name="Copy_conv2.0.gate.fc2.weight/Output_0/Data__const1264_const" type="Const" version="opset1">
			<data element_type="f16" offset="20724" shape="64,4,1,1" size="512"/>
			<output>
				<port id="0" names="conv2.0.gate.fc2.weight" precision="FP16">
					<dim>64</dim>
					<dim>4</dim>
					<dim>1</dim>
					<dim>1</dim>
				</port>
			</output>
		</layer>
		<layer id="123" name="614/WithoutBiases" type="Convolution" version="opset1">
			<data auto_pad="explicit" dilations="1,1" pads_begin="0,0" pads_end="0,0" strides="1,1"/>
			<input>
				<port id="0">
					<dim>1</dim>
					<dim>4</dim>
					<dim>1</dim>
					<dim>1</dim>
				</port>
				<port id="1">
					<dim>64</dim>
					<dim>4</dim>
					<dim>1</dim>
					<dim>1</dim>
				</port>
			</input>
			<output>
				<port id="2" precision="FP16">
					<dim>1</dim>
					<dim>64</dim>
					<dim>1</dim>
					<dim>1</dim>
				</port>
			</output>
		</layer>
		<layer id="124" name="614/Dims1300622703/EltwiseUnsqueeze23166_const1266_const" type="Const" version="opset1">
			<data element_type="f16" offset="21236" shape="1,64,1,1" size="128"/>
			<output>
				<port id="0" precision="FP16">
					<dim>1</dim>
					<dim>64</dim>
					<dim>1</dim>
					<dim>1</dim>
				</port>
			</output>
		</layer>
		<layer id="125" name="614" type="Add" version="opset1">
			<data auto_broadcast="numpy"/>
			<input>
				<port id="0">
					<dim>1</dim>
					<dim>64</dim>
					<dim>1</dim>
					<dim>1</dim>
				</port>
				<port id="1">
					<dim>1</dim>
					<dim>64</dim>
					<dim>1</dim>
					<dim>1</dim>
				</port>
			</input>
			<output>
				<port id="2" names="614" precision="FP16">
					<dim>1</dim>
					<dim>64</dim>
					<dim>1</dim>
					<dim>1</dim>
				</port>
			</output>
		</layer>
		<layer id="126" name="615" type="Sigmoid" version="opset1">
			<input>
				<port id="0">
					<dim>1</dim>
					<dim>64</dim>
					<dim>1</dim>
					<dim>1</dim>
				</port>
			</input>
			<output>
				<port id="1" names="615" precision="FP16">
					<dim>1</dim>
					<dim>64</dim>
					<dim>1</dim>
					<dim>1</dim>
				</port>
			</output>
		</layer>
		<layer id="127" name="47774781_const" type="Const" version="opset1">
			<data element_type="f16" offset="10108" shape="" size="2"/>
			<output>
				<port id="0" precision="FP16"/>
			</output>
		</layer>
		<layer id="128" name="47784782_const" type="Const" version="opset1">
			<data element_type="f16" offset="21364" shape="" size="2"/>
			<output>
				<port id="0" precision="FP16"/>
			</output>
		</layer>
		<layer id="129" name="47794783_const" type="Const" version="opset1">
			<data element_type="f16" offset="10108" shape="" size="2"/>
			<output>
				<port id="0" precision="FP16"/>
			</output>
		</layer>
		<layer id="130" name="47804784_const" type="Const" version="opset1">
			<data element_type="f16" offset="21364" shape="" size="2"/>
			<output>
				<port id="0" precision="FP16"/>
			</output>
		</layer>
		<layer id="131" name="616/fq_input_1" type="FakeQuantize" version="opset1">
			<data auto_broadcast="numpy" levels="256"/>
			<input>
				<port id="0">
					<dim>1</dim>
					<dim>64</dim>
					<dim>1</dim>
					<dim>1</dim>
				</port>
				<port id="1"/>
				<port id="2"/>
				<port id="3"/>
				<port id="4"/>
			</input>
			<output>
				<port id="5" precision="FP16">
					<dim>1</dim>
					<dim>64</dim>
					<dim>1</dim>
					<dim>1</dim>
				</port>
			</output>
		</layer>
		<layer id="132" name="616" type="Multiply" version="opset1">
			<data auto_broadcast="numpy"/>
			<input>
				<port id="0">
					<dim>1</dim>
					<dim>64</dim>
					<dim>64</dim>
					<dim>32</dim>
				</port>
				<port id="1">
					<dim>1</dim>
					<dim>64</dim>
					<dim>1</dim>
					<dim>1</dim>
				</port>
			</input>
			<output>
				<port id="2" names="616" precision="FP16">
					<dim>1</dim>
					<dim>64</dim>
					<dim>64</dim>
					<dim>32</dim>
				</port>
			</output>
		</layer>
		<layer id="133" name="44974501_const" type="Const" version="opset1">
			<data element_type="f16" offset="10108" shape="" size="2"/>
			<output>
				<port id="0" precision="FP16"/>
			</output>
		</layer>
		<layer id="134" name="44984502_const" type="Const" version="opset1">
			<data element_type="f16" offset="21366" shape="" size="2"/>
			<output>
				<port id="0" precision="FP16"/>
			</output>
		</layer>
		<layer id="135" name="44994503_const" type="Const" version="opset1">
			<data element_type="f16" offset="10108" shape="" size="2"/>
			<output>
				<port id="0" precision="FP16"/>
			</output>
		</layer>
		<layer id="136" name="45004504_const" type="Const" version="opset1">
			<data element_type="f16" offset="21366" shape="" size="2"/>
			<output>
				<port id="0" precision="FP16"/>
			</output>
		</layer>
		<layer id="137" name="623/fq_input_0" type="FakeQuantize" version="opset1">
			<data auto_broadcast="numpy" levels="256"/>
			<input>
				<port id="0">
					<dim>1</dim>
					<dim>64</dim>
					<dim>64</dim>
					<dim>32</dim>
				</port>
				<port id="1"/>
				<port id="2"/>
				<port id="3"/>
				<port id="4"/>
			</input>
			<output>
				<port id="5" precision="FP16">
					<dim>1</dim>
					<dim>64</dim>
					<dim>64</dim>
					<dim>32</dim>
				</port>
			</output>
		</layer>
		<layer id="138" name="conv2.0.conv2b.0.conv1.weight/quantized20091_const" type="Const" version="opset1">
			<data element_type="i8" offset="21368" shape="64,64,1,1" size="4096"/>
			<output>
				<port id="0" precision="I8">
					<dim>64</dim>
					<dim>64</dim>
					<dim>1</dim>
					<dim>1</dim>
				</port>
			</output>
		</layer>
		<layer id="139" name="conv2.0.conv2b.0.conv1.weight/quantized/to_f16" type="Convert" version="opset1">
			<data destination_type="f16"/>
			<input>
				<port id="0">
					<dim>64</dim>
					<dim>64</dim>
					<dim>1</dim>
					<dim>1</dim>
				</port>
			</input>
			<output>
				<port id="1" precision="FP16">
					<dim>64</dim>
					<dim>64</dim>
					<dim>1</dim>
					<dim>1</dim>
				</port>
			</output>
		</layer>
		<layer id="140" name="575/fq_weights_1/zero_point20104_const" type="Const" version="opset1">
			<data element_type="f16" offset="25464" shape="64,1,1,1" size="128"/>
			<output>
				<port id="0" precision="FP16">
					<dim>64</dim>
					<dim>1</dim>
					<dim>1</dim>
					<dim>1</dim>
				</port>
			</output>
		</layer>
		<layer id="141" name="575/fq_weights_1/minus_zp" type="Subtract" version="opset1">
			<data auto_broadcast="numpy"/>
			<input>
				<port id="0">
					<dim>64</dim>
					<dim>64</dim>
					<dim>1</dim>
					<dim>1</dim>
				</port>
				<port id="1">
					<dim>64</dim>
					<dim>1</dim>
					<dim>1</dim>
					<dim>1</dim>
				</port>
			</input>
			<output>
				<port id="2" precision="FP16">
					<dim>64</dim>
					<dim>64</dim>
					<dim>1</dim>
					<dim>1</dim>
				</port>
			</output>
		</layer>
		<layer id="142" name="575/fq_weights_1/scale20099_const" type="Const" version="opset1">
			<data element_type="f16" offset="25592" shape="64,1,1,1" size="128"/>
			<output>
				<port id="0" precision="FP16">
					<dim>64</dim>
					<dim>1</dim>
					<dim>1</dim>
					<dim>1</dim>
				</port>
			</output>
		</layer>
		<layer id="143" name="575/fq_weights_1/mulpiply_by_scale" type="Multiply" version="opset1">
			<data auto_broadcast="numpy"/>
			<input>
				<port id="0">
					<dim>64</dim>
					<dim>64</dim>
					<dim>1</dim>
					<dim>1</dim>
				</port>
				<port id="1">
					<dim>64</dim>
					<dim>1</dim>
					<dim>1</dim>
					<dim>1</dim>
				</port>
			</input>
			<output>
				<port id="2" precision="FP16">
					<dim>64</dim>
					<dim>64</dim>
					<dim>1</dim>
					<dim>1</dim>
				</port>
			</output>
		</layer>
		<layer id="144" name="575" type="Convolution" version="opset1">
			<data auto_pad="explicit" dilations="1,1" pads_begin="0,0" pads_end="0,0" strides="1,1"/>
			<input>
				<port id="0">
					<dim>1</dim>
					<dim>64</dim>
					<dim>64</dim>
					<dim>32</dim>
				</port>
				<port id="1">
					<dim>64</dim>
					<dim>64</dim>
					<dim>1</dim>
					<dim>1</dim>
				</port>
			</input>
			<output>
				<port id="2" names="575" precision="FP16">
					<dim>1</dim>
					<dim>64</dim>
					<dim>64</dim>
					<dim>32</dim>
				</port>
			</output>
		</layer>
		<layer id="145" name="28762878_const" type="Const" version="opset1">
			<data element_type="f16" offset="9720" shape="1,64,1,1" size="128"/>
			<output>
				<port id="0" precision="FP16">
					<dim>1</dim>
					<dim>64</dim>
					<dim>1</dim>
					<dim>1</dim>
				</port>
			</output>
		</layer>
		<layer id="146" name="575/add_" type="Add" version="opset1">
			<data auto_broadcast="numpy"/>
			<input>
				<port id="0">
					<dim>1</dim>
					<dim>64</dim>
					<dim>64</dim>
					<dim>32</dim>
				</port>
				<port id="1">
					<dim>1</dim>
					<dim>64</dim>
					<dim>1</dim>
					<dim>1</dim>
				</port>
			</input>
			<output>
				<port id="2" precision="FP16">
					<dim>1</dim>
					<dim>64</dim>
					<dim>64</dim>
					<dim>32</dim>
				</port>
			</output>
		</layer>
		<layer id="147" name="74877491_const" type="Const" version="opset1">
			<data element_type="f16" offset="25720" shape="1,64,1,1" size="128"/>
			<output>
				<port id="0" precision="FP16">
					<dim>1</dim>
					<dim>64</dim>
					<dim>1</dim>
					<dim>1</dim>
				</port>
			</output>
		</layer>
		<layer id="148" name="74887492_const" type="Const" version="opset1">
			<data element_type="f16" offset="25848" shape="1,64,1,1" size="128"/>
			<output>
				<port id="0" precision="FP16">
					<dim>1</dim>
					<dim>64</dim>
					<dim>1</dim>
					<dim>1</dim>
				</port>
			</output>
		</layer>
		<layer id="149" name="74897493_const" type="Const" version="opset1">
			<data element_type="f16" offset="25720" shape="1,64,1,1" size="128"/>
			<output>
				<port id="0" precision="FP16">
					<dim>1</dim>
					<dim>64</dim>
					<dim>1</dim>
					<dim>1</dim>
				</port>
			</output>
		</layer>
		<layer id="150" name="74907494_const" type="Const" version="opset1">
			<data element_type="f16" offset="25848" shape="1,64,1,1" size="128"/>
			<output>
				<port id="0" precision="FP16">
					<dim>1</dim>
					<dim>64</dim>
					<dim>1</dim>
					<dim>1</dim>
				</port>
			</output>
		</layer>
		<layer id="151" name="576/fq_input_0" type="FakeQuantize" version="opset1">
			<data auto_broadcast="numpy" levels="256"/>
			<input>
				<port id="0">
					<dim>1</dim>
					<dim>64</dim>
					<dim>64</dim>
					<dim>32</dim>
				</port>
				<port id="1">
					<dim>1</dim>
					<dim>64</dim>
					<dim>1</dim>
					<dim>1</dim>
				</port>
				<port id="2">
					<dim>1</dim>
					<dim>64</dim>
					<dim>1</dim>
					<dim>1</dim>
				</port>
				<port id="3">
					<dim>1</dim>
					<dim>64</dim>
					<dim>1</dim>
					<dim>1</dim>
				</port>
				<port id="4">
					<dim>1</dim>
					<dim>64</dim>
					<dim>1</dim>
					<dim>1</dim>
				</port>
			</input>
			<output>
				<port id="5" precision="FP16">
					<dim>1</dim>
					<dim>64</dim>
					<dim>64</dim>
					<dim>32</dim>
				</port>
			</output>
		</layer>
		<layer id="152" name="4223942242_const127215340/quantized18987_const" type="Const" version="opset1">
			<data element_type="i8" offset="25976" shape="64,1,3,3" size="576"/>
			<output>
				<port id="0" precision="I8">
					<dim>64</dim>
					<dim>1</dim>
					<dim>3</dim>
					<dim>3</dim>
				</port>
			</output>
		</layer>
		<layer id="153" name="4223942242_const127215340/quantized/to_f16" type="Convert" version="opset1">
			<data destination_type="f16"/>
			<input>
				<port id="0">
					<dim>64</dim>
					<dim>1</dim>
					<dim>3</dim>
					<dim>3</dim>
				</port>
			</input>
			<output>
				<port id="1" precision="FP16">
					<dim>64</dim>
					<dim>1</dim>
					<dim>3</dim>
					<dim>3</dim>
				</port>
			</output>
		</layer>
		<layer id="154" name="576/fq_weights_1/zero_point19000_const" type="Const" version="opset1">
			<data element_type="f16" offset="26552" shape="64,1,1,1" size="128"/>
			<output>
				<port id="0" precision="FP16">
					<dim>64</dim>
					<dim>1</dim>
					<dim>1</dim>
					<dim>1</dim>
				</port>
			</output>
		</layer>
		<layer id="155" name="576/fq_weights_1/minus_zp" type="Subtract" version="opset1">
			<data auto_broadcast="numpy"/>
			<input>
				<port id="0">
					<dim>64</dim>
					<dim>1</dim>
					<dim>3</dim>
					<dim>3</dim>
				</port>
				<port id="1">
					<dim>64</dim>
					<dim>1</dim>
					<dim>1</dim>
					<dim>1</dim>
				</port>
			</input>
			<output>
				<port id="2" precision="FP16">
					<dim>64</dim>
					<dim>1</dim>
					<dim>3</dim>
					<dim>3</dim>
				</port>
			</output>
		</layer>
		<layer id="156" name="576/fq_weights_1/scale18995_const" type="Const" version="opset1">
			<data element_type="f16" offset="26680" shape="64,1,1,1" size="128"/>
			<output>
				<port id="0" precision="FP16">
					<dim>64</dim>
					<dim>1</dim>
					<dim>1</dim>
					<dim>1</dim>
				</port>
			</output>
		</layer>
		<layer id="157" name="576/fq_weights_1/mulpiply_by_scale" type="Multiply" version="opset1">
			<data auto_broadcast="numpy"/>
			<input>
				<port id="0">
					<dim>64</dim>
					<dim>1</dim>
					<dim>3</dim>
					<dim>3</dim>
				</port>
				<port id="1">
					<dim>64</dim>
					<dim>1</dim>
					<dim>1</dim>
					<dim>1</dim>
				</port>
			</input>
			<output>
				<port id="2" precision="FP16">
					<dim>64</dim>
					<dim>1</dim>
					<dim>3</dim>
					<dim>3</dim>
				</port>
			</output>
		</layer>
		<layer id="158" name="24492/value24494_const" type="Const" version="opset1">
			<data element_type="i64" offset="20034" shape="5" size="40"/>
			<output>
				<port id="0" precision="I64">
					<dim>5</dim>
				</port>
			</output>
		</layer>
		<layer id="159" name="24492" type="Reshape" version="opset1">
			<data special_zero="true"/>
			<input>
				<port id="0">
					<dim>64</dim>
					<dim>1</dim>
					<dim>3</dim>
					<dim>3</dim>
				</port>
				<port id="1">
					<dim>5</dim>
				</port>
			</input>
			<output>
				<port id="2" precision="FP16">
					<dim>64</dim>
					<dim>1</dim>
					<dim>1</dim>
					<dim>3</dim>
					<dim>3</dim>
				</port>
			</output>
		</layer>
		<layer id="160" name="576" type="GroupConvolution" version="opset1">
			<data auto_pad="explicit" dilations="1,1" pads_begin="1,1" pads_end="1,1" strides="1,1"/>
			<input>
				<port id="0">
					<dim>1</dim>
					<dim>64</dim>
					<dim>64</dim>
					<dim>32</dim>
				</port>
				<port id="1">
					<dim>64</dim>
					<dim>1</dim>
					<dim>1</dim>
					<dim>3</dim>
					<dim>3</dim>
				</port>
			</input>
			<output>
				<port id="2" precision="FP16">
					<dim>1</dim>
					<dim>64</dim>
					<dim>64</dim>
					<dim>32</dim>
				</port>
			</output>
		</layer>
		<layer id="161" name="data_add_217652177022728/EltwiseUnsqueeze23258_const1274_const" type="Const" version="opset1">
			<data element_type="f16" offset="26808" shape="1,64,1,1" size="128"/>
			<output>
				<port id="0" precision="FP16">
					<dim>1</dim>
					<dim>64</dim>
					<dim>1</dim>
					<dim>1</dim>
				</port>
			</output>
		</layer>
		<layer id="162" name="577/variance/Fused_Add_" type="Add" version="opset1">
			<data auto_broadcast="numpy"/>
			<input>
				<port id="0">
					<dim>1</dim>
					<dim>64</dim>
					<dim>64</dim>
					<dim>32</dim>
				</port>
				<port id="1">
					<dim>1</dim>
					<dim>64</dim>
					<dim>1</dim>
					<dim>1</dim>
				</port>
			</input>
			<output>
				<port id="2" names="577" precision="FP16">
					<dim>1</dim>
					<dim>64</dim>
					<dim>64</dim>
					<dim>32</dim>
				</port>
			</output>
		</layer>
		<layer id="163" name="578" type="ReLU" version="opset1">
			<input>
				<port id="0">
					<dim>1</dim>
					<dim>64</dim>
					<dim>64</dim>
					<dim>32</dim>
				</port>
			</input>
			<output>
				<port id="1" names="578" precision="FP16">
					<dim>1</dim>
					<dim>64</dim>
					<dim>64</dim>
					<dim>32</dim>
				</port>
			</output>
		</layer>
		<layer id="164" name="60176021_const" type="Const" version="opset1">
			<data element_type="f16" offset="10108" shape="" size="2"/>
			<output>
				<port id="0" precision="FP16"/>
			</output>
		</layer>
		<layer id="165" name="60186022_const" type="Const" version="opset1">
			<data element_type="f16" offset="26936" shape="" size="2"/>
			<output>
				<port id="0" precision="FP16"/>
			</output>
		</layer>
		<layer id="166" name="60196023_const" type="Const" version="opset1">
			<data element_type="f16" offset="10108" shape="" size="2"/>
			<output>
				<port id="0" precision="FP16"/>
			</output>
		</layer>
		<layer id="167" name="60206024_const" type="Const" version="opset1">
			<data element_type="f16" offset="26936" shape="" size="2"/>
			<output>
				<port id="0" precision="FP16"/>
			</output>
		</layer>
		<layer id="168" name="579/fq_input_0" type="FakeQuantize" version="opset1">
			<data auto_broadcast="numpy" levels="256"/>
			<input>
				<port id="0">
					<dim>1</dim>
					<dim>64</dim>
					<dim>64</dim>
					<dim>32</dim>
				</port>
				<port id="1"/>
				<port id="2"/>
				<port id="3"/>
				<port id="4"/>
			</input>
			<output>
				<port id="5" precision="FP16">
					<dim>1</dim>
					<dim>64</dim>
					<dim>64</dim>
					<dim>32</dim>
				</port>
			</output>
		</layer>
		<layer id="169" name="conv2.0.conv2b.1.conv1.weight/quantized17691_const" type="Const" version="opset1">
			<data element_type="i8" offset="26938" shape="64,64,1,1" size="4096"/>
			<output>
				<port id="0" precision="I8">
					<dim>64</dim>
					<dim>64</dim>
					<dim>1</dim>
					<dim>1</dim>
				</port>
			</output>
		</layer>
		<layer id="170" name="conv2.0.conv2b.1.conv1.weight/quantized/to_f16" type="Convert" version="opset1">
			<data destination_type="f16"/>
			<input>
				<port id="0">
					<dim>64</dim>
					<dim>64</dim>
					<dim>1</dim>
					<dim>1</dim>
				</port>
			</input>
			<output>
				<port id="1" precision="FP16">
					<dim>64</dim>
					<dim>64</dim>
					<dim>1</dim>
					<dim>1</dim>
				</port>
			</output>
		</layer>
		<layer id="171" name="579/fq_weights_1/zero_point17704_const" type="Const" version="opset1">
			<data element_type="f16" offset="31034" shape="64,1,1,1" size="128"/>
			<output>
				<port id="0" precision="FP16">
					<dim>64</dim>
					<dim>1</dim>
					<dim>1</dim>
					<dim>1</dim>
				</port>
			</output>
		</layer>
		<layer id="172" name="579/fq_weights_1/minus_zp" type="Subtract" version="opset1">
			<data auto_broadcast="numpy"/>
			<input>
				<port id="0">
					<dim>64</dim>
					<dim>64</dim>
					<dim>1</dim>
					<dim>1</dim>
				</port>
				<port id="1">
					<dim>64</dim>
					<dim>1</dim>
					<dim>1</dim>
					<dim>1</dim>
				</port>
			</input>
			<output>
				<port id="2" precision="FP16">
					<dim>64</dim>
					<dim>64</dim>
					<dim>1</dim>
					<dim>1</dim>
				</port>
			</output>
		</layer>
		<layer id="173" name="579/fq_weights_1/scale17699_const" type="Const" version="opset1">
			<data element_type="f16" offset="31162" shape="64,1,1,1" size="128"/>
			<output>
				<port id="0" precision="FP16">
					<dim>64</dim>
					<dim>1</dim>
					<dim>1</dim>
					<dim>1</dim>
				</port>
			</output>
		</layer>
		<layer id="174" name="579/fq_weights_1/mulpiply_by_scale" type="Multiply" version="opset1">
			<data auto_broadcast="numpy"/>
			<input>
				<port id="0">
					<dim>64</dim>
					<dim>64</dim>
					<dim>1</dim>
					<dim>1</dim>
				</port>
				<port id="1">
					<dim>64</dim>
					<dim>1</dim>
					<dim>1</dim>
					<dim>1</dim>
				</port>
			</input>
			<output>
				<port id="2" precision="FP16">
					<dim>64</dim>
					<dim>64</dim>
					<dim>1</dim>
					<dim>1</dim>
				</port>
			</output>
		</layer>
		<layer id="175" name="579" type="Convolution" version="opset1">
			<data auto_pad="explicit" dilations="1,1" pads_begin="0,0" pads_end="0,0" strides="1,1"/>
			<input>
				<port id="0">
					<dim>1</dim>
					<dim>64</dim>
					<dim>64</dim>
					<dim>32</dim>
				</port>
				<port id="1">
					<dim>64</dim>
					<dim>64</dim>
					<dim>1</dim>
					<dim>1</dim>
				</port>
			</input>
			<output>
				<port id="2" names="579" precision="FP16">
					<dim>1</dim>
					<dim>64</dim>
					<dim>64</dim>
					<dim>32</dim>
				</port>
			</output>
		</layer>
		<layer id="176" name="28802882_const" type="Const" version="opset1">
			<data element_type="f16" offset="9720" shape="1,64,1,1" size="128"/>
			<output>
				<port id="0" precision="FP16">
					<dim>1</dim>
					<dim>64</dim>
					<dim>1</dim>
					<dim>1</dim>
				</port>
			</output>
		</layer>
		<layer id="177" name="579/add_" type="Add" version="opset1">
			<data auto_broadcast="numpy"/>
			<input>
				<port id="0">
					<dim>1</dim>
					<dim>64</dim>
					<dim>64</dim>
					<dim>32</dim>
				</port>
				<port id="1">
					<dim>1</dim>
					<dim>64</dim>
					<dim>1</dim>
					<dim>1</dim>
				</port>
			</input>
			<output>
				<port id="2" precision="FP16">
					<dim>1</dim>
					<dim>64</dim>
					<dim>64</dim>
					<dim>32</dim>
				</port>
			</output>
		</layer>
		<layer id="178" name="54475451_const" type="Const" version="opset1">
			<data element_type="f16" offset="31290" shape="1,64,1,1" size="128"/>
			<output>
				<port id="0" precision="FP16">
					<dim>1</dim>
					<dim>64</dim>
					<dim>1</dim>
					<dim>1</dim>
				</port>
			</output>
		</layer>
		<layer id="179" name="54485452_const" type="Const" version="opset1">
			<data element_type="f16" offset="31418" shape="1,64,1,1" size="128"/>
			<output>
				<port id="0" precision="FP16">
					<dim>1</dim>
					<dim>64</dim>
					<dim>1</dim>
					<dim>1</dim>
				</port>
			</output>
		</layer>
		<layer id="180" name="54495453_const" type="Const" version="opset1">
			<data element_type="f16" offset="31290" shape="1,64,1,1" size="128"/>
			<output>
				<port id="0" precision="FP16">
					<dim>1</dim>
					<dim>64</dim>
					<dim>1</dim>
					<dim>1</dim>
				</port>
			</output>
		</layer>
		<layer id="181" name="54505454_const" type="Const" version="opset1">
			<data element_type="f16" offset="31418" shape="1,64,1,1" size="128"/>
			<output>
				<port id="0" precision="FP16">
					<dim>1</dim>
					<dim>64</dim>
					<dim>1</dim>
					<dim>1</dim>
				</port>
			</output>
		</layer>
		<layer id="182" name="580/fq_input_0" type="FakeQuantize" version="opset1">
			<data auto_broadcast="numpy" levels="256"/>
			<input>
				<port id="0">
					<dim>1</dim>
					<dim>64</dim>
					<dim>64</dim>
					<dim>32</dim>
				</port>
				<port id="1">
					<dim>1</dim>
					<dim>64</dim>
					<dim>1</dim>
					<dim>1</dim>
				</port>
				<port id="2">
					<dim>1</dim>
					<dim>64</dim>
					<dim>1</dim>
					<dim>1</dim>
				</port>
				<port id="3">
					<dim>1</dim>
					<dim>64</dim>
					<dim>1</dim>
					<dim>1</dim>
				</port>
				<port id="4">
					<dim>1</dim>
					<dim>64</dim>
					<dim>1</dim>
					<dim>1</dim>
				</port>
			</input>
			<output>
				<port id="5" precision="FP16">
					<dim>1</dim>
					<dim>64</dim>
					<dim>64</dim>
					<dim>32</dim>
				</port>
			</output>
		</layer>
		<layer id="183" name="4223542238_const127915343/quantized20595_const" type="Const" version="opset1">
			<data element_type="i8" offset="31546" shape="64,1,3,3" size="576"/>
			<output>
				<port id="0" precision="I8">
					<dim>64</dim>
					<dim>1</dim>
					<dim>3</dim>
					<dim>3</dim>
				</port>
			</output>
		</layer>
		<layer id="184" name="4223542238_const127915343/quantized/to_f16" type="Convert" version="opset1">
			<data destination_type="f16"/>
			<input>
				<port id="0">
					<dim>64</dim>
					<dim>1</dim>
					<dim>3</dim>
					<dim>3</dim>
				</port>
			</input>
			<output>
				<port id="1" precision="FP16">
					<dim>64</dim>
					<dim>1</dim>
					<dim>3</dim>
					<dim>3</dim>
				</port>
			</output>
		</layer>
		<layer id="185" name="580/fq_weights_1/zero_point20608_const" type="Const" version="opset1">
			<data element_type="f16" offset="32122" shape="64,1,1,1" size="128"/>
			<output>
				<port id="0" precision="FP16">
					<dim>64</dim>
					<dim>1</dim>
					<dim>1</dim>
					<dim>1</dim>
				</port>
			</output>
		</layer>
		<layer id="186" name="580/fq_weights_1/minus_zp" type="Subtract" version="opset1">
			<data auto_broadcast="numpy"/>
			<input>
				<port id="0">
					<dim>64</dim>
					<dim>1</dim>
					<dim>3</dim>
					<dim>3</dim>
				</port>
				<port id="1">
					<dim>64</dim>
					<dim>1</dim>
					<dim>1</dim>
					<dim>1</dim>
				</port>
			</input>
			<output>
				<port id="2" precision="FP16">
					<dim>64</dim>
					<dim>1</dim>
					<dim>3</dim>
					<dim>3</dim>
				</port>
			</output>
		</layer>
		<layer id="187" name="580/fq_weights_1/scale20603_const" type="Const" version="opset1">
			<data element_type="f16" offset="32250" shape="64,1,1,1" size="128"/>
			<output>
				<port id="0" precision="FP16">
					<dim>64</dim>
					<dim>1</dim>
					<dim>1</dim>
					<dim>1</dim>
				</port>
			</output>
		</layer>
		<layer id="188" name="580/fq_weights_1/mulpiply_by_scale" type="Multiply" version="opset1">
			<data auto_broadcast="numpy"/>
			<input>
				<port id="0">
					<dim>64</dim>
					<dim>1</dim>
					<dim>3</dim>
					<dim>3</dim>
				</port>
				<port id="1">
					<dim>64</dim>
					<dim>1</dim>
					<dim>1</dim>
					<dim>1</dim>
				</port>
			</input>
			<output>
				<port id="2" precision="FP16">
					<dim>64</dim>
					<dim>1</dim>
					<dim>3</dim>
					<dim>3</dim>
				</port>
			</output>
		</layer>
		<layer id="189" name="24388/value24390_const" type="Const" version="opset1">
			<data element_type="i64" offset="20034" shape="5" size="40"/>
			<output>
				<port id="0" precision="I64">
					<dim>5</dim>
				</port>
			</output>
		</layer>
		<layer id="190" name="24388" type="Reshape" version="opset1">
			<data special_zero="true"/>
			<input>
				<port id="0">
					<dim>64</dim>
					<dim>1</dim>
					<dim>3</dim>
					<dim>3</dim>
				</port>
				<port id="1">
					<dim>5</dim>
				</port>
			</input>
			<output>
				<port id="2" precision="FP16">
					<dim>64</dim>
					<dim>1</dim>
					<dim>1</dim>
					<dim>3</dim>
					<dim>3</dim>
				</port>
			</output>
		</layer>
		<layer id="191" name="580" type="GroupConvolution" version="opset1">
			<data auto_pad="explicit" dilations="1,1" pads_begin="1,1" pads_end="1,1" strides="1,1"/>
			<input>
				<port id="0">
					<dim>1</dim>
					<dim>64</dim>
					<dim>64</dim>
					<dim>32</dim>
				</port>
				<port id="1">
					<dim>64</dim>
					<dim>1</dim>
					<dim>1</dim>
					<dim>3</dim>
					<dim>3</dim>
				</port>
			</input>
			<output>
				<port id="2" precision="FP16">
					<dim>1</dim>
					<dim>64</dim>
					<dim>64</dim>
					<dim>32</dim>
				</port>
			</output>
		</layer>
		<layer id="192" name="data_add_217732177822730/EltwiseUnsqueeze23266_const1281_const" type="Const" version="opset1">
			<data element_type="f16" offset="32378" shape="1,64,1,1" size="128"/>
			<output>
				<port id="0" precision="FP16">
					<dim>1</dim>
					<dim>64</dim>
					<dim>1</dim>
					<dim>1</dim>
				</port>
			</output>
		</layer>
		<layer id="193" name="581/variance/Fused_Add_" type="Add" version="opset1">
			<data auto_broadcast="numpy"/>
			<input>
				<port id="0">
					<dim>1</dim>
					<dim>64</dim>
					<dim>64</dim>
					<dim>32</dim>
				</port>
				<port id="1">
					<dim>1</dim>
					<dim>64</dim>
					<dim>1</dim>
					<dim>1</dim>
				</port>
			</input>
			<output>
				<port id="2" names="581" precision="FP16">
					<dim>1</dim>
					<dim>64</dim>
					<dim>64</dim>
					<dim>32</dim>
				</port>
			</output>
		</layer>
		<layer id="194" name="582" type="ReLU" version="opset1">
			<input>
				<port id="0">
					<dim>1</dim>
					<dim>64</dim>
					<dim>64</dim>
					<dim>32</dim>
				</port>
			</input>
			<output>
				<port id="1" names="582" precision="FP16">
					<dim>1</dim>
					<dim>64</dim>
					<dim>64</dim>
					<dim>32</dim>
				</port>
			</output>
		</layer>
		<layer id="195" name="78077811_const" type="Const" version="opset1">
			<data element_type="f16" offset="10108" shape="" size="2"/>
			<output>
				<port id="0" precision="FP16"/>
			</output>
		</layer>
		<layer id="196" name="78087812_const" type="Const" version="opset1">
			<data element_type="f16" offset="32506" shape="" size="2"/>
			<output>
				<port id="0" precision="FP16"/>
			</output>
		</layer>
		<layer id="197" name="78097813_const" type="Const" version="opset1">
			<data element_type="f16" offset="10108" shape="" size="2"/>
			<output>
				<port id="0" precision="FP16"/>
			</output>
		</layer>
		<layer id="198" name="78107814_const" type="Const" version="opset1">
			<data element_type="f16" offset="32506" shape="" size="2"/>
			<output>
				<port id="0" precision="FP16"/>
			</output>
		</layer>
		<layer id="199" name="617/reduce/fq_input_0" type="FakeQuantize" version="opset1">
			<data auto_broadcast="numpy" levels="256"/>
			<input>
				<port id="0">
					<dim>1</dim>
					<dim>64</dim>
					<dim>64</dim>
					<dim>32</dim>
				</port>
				<port id="1"/>
				<port id="2"/>
				<port id="3"/>
				<port id="4"/>
			</input>
			<output>
				<port id="5" precision="FP16">
					<dim>1</dim>
					<dim>64</dim>
					<dim>64</dim>
					<dim>32</dim>
				</port>
			</output>
		</layer>
		<layer id="200" name="1329/Output_0/Data__const1284_const" type="Const" version="opset1">
			<data element_type="i64" offset="24" shape="" size="8"/>
			<output>
				<port id="0" precision="I64"/>
			</output>
		</layer>
		<layer id="201" name="617/input_rank/shape_of" type="ShapeOf" version="opset3">
			<data output_type="i64"/>
			<input>
				<port id="0">
					<dim>1</dim>
					<dim>64</dim>
					<dim>64</dim>
					<dim>32</dim>
				</port>
			</input>
			<output>
				<port id="1" precision="I64">
					<dim>4</dim>
				</port>
			</output>
		</layer>
		<layer id="202" name="617/input_rank/rank_of" type="ShapeOf" version="opset3">
			<data output_type="i64"/>
			<input>
				<port id="0">
					<dim>4</dim>
				</port>
			</input>
			<output>
				<port id="1" precision="I64">
					<dim>1</dim>
				</port>
			</output>
		</layer>
		<layer id="203" name="617/input_rank/0d_rank_of/value/Output_0/Data__const1287_const" type="Const" version="opset1">
			<data element_type="i64" offset="32" shape="1" size="8"/>
			<output>
				<port id="0" precision="I64">
					<dim>1</dim>
				</port>
			</output>
		</layer>
		<layer id="204" name="617/input_rank" type="Squeeze" version="opset1">
			<input>
				<port id="0">
					<dim>1</dim>
				</port>
				<port id="1">
					<dim>1</dim>
				</port>
			</input>
			<output>
				<port id="2" precision="I64"/>
			</output>
		</layer>
		<layer id="205" name="1331/Output_0/Data__const1289_const" type="Const" version="opset1">
			<data element_type="i64" offset="0" shape="" size="8"/>
			<output>
				<port id="0" precision="I64"/>
			</output>
		</layer>
		<layer id="206" name="617/global_pooling_reduce_axis" type="Range" version="opset4">
			<data output_type="i64"/>
			<input>
				<port id="0"/>
				<port id="1"/>
				<port id="2"/>
			</input>
			<output>
				<port id="3" precision="I64">
					<dim>2</dim>
				</port>
			</output>
		</layer>
		<layer id="207" name="617/reduce" type="ReduceMean" version="opset1">
			<data keep_dims="true"/>
			<input>
				<port id="0">
					<dim>1</dim>
					<dim>64</dim>
					<dim>64</dim>
					<dim>32</dim>
				</port>
				<port id="1">
					<dim>2</dim>
				</port>
			</input>
			<output>
				<port id="2" names="617" precision="FP16">
					<dim>1</dim>
					<dim>64</dim>
					<dim>1</dim>
					<dim>1</dim>
				</port>
			</output>
		</layer>
		<layer id="208" name="Copy_conv2.0.gate.fc1.weight/Output_0/Data_4368_const1292_const" type="Const" version="opset1">
			<data element_type="f16" offset="20204" shape="4,64,1,1" size="512"/>
			<output>
				<port id="0" names="conv2.0.gate.fc1.weight" precision="FP16">
					<dim>4</dim>
					<dim>64</dim>
					<dim>1</dim>
					<dim>1</dim>
				</port>
			</output>
		</layer>
		<layer id="209" name="618/WithoutBiases" type="Convolution" version="opset1">
			<data auto_pad="explicit" dilations="1,1" pads_begin="0,0" pads_end="0,0" strides="1,1"/>
			<input>
				<port id="0">
					<dim>1</dim>
					<dim>64</dim>
					<dim>1</dim>
					<dim>1</dim>
				</port>
				<port id="1">
					<dim>4</dim>
					<dim>64</dim>
					<dim>1</dim>
					<dim>1</dim>
				</port>
			</input>
			<output>
				<port id="2" precision="FP16">
					<dim>1</dim>
					<dim>4</dim>
					<dim>1</dim>
					<dim>1</dim>
				</port>
			</output>
		</layer>
		<layer id="210" name="618/Dims1294622693/EltwiseUnsqueeze23126_const1294_const" type="Const" version="opset1">
			<data element_type="f16" offset="20716" shape="1,4,1,1" size="8"/>
			<output>
				<port id="0" precision="FP16">
					<dim>1</dim>
					<dim>4</dim>
					<dim>1</dim>
					<dim>1</dim>
				</port>
			</output>
		</layer>
		<layer id="211" name="618" type="Add" version="opset1">
			<data auto_broadcast="numpy"/>
			<input>
				<port id="0">
					<dim>1</dim>
					<dim>4</dim>
					<dim>1</dim>
					<dim>1</dim>
				</port>
				<port id="1">
					<dim>1</dim>
					<dim>4</dim>
					<dim>1</dim>
					<dim>1</dim>
				</port>
			</input>
			<output>
				<port id="2" names="618" precision="FP16">
					<dim>1</dim>
					<dim>4</dim>
					<dim>1</dim>
					<dim>1</dim>
				</port>
			</output>
		</layer>
		<layer id="212" name="619" type="ReLU" version="opset1">
			<input>
				<port id="0">
					<dim>1</dim>
					<dim>4</dim>
					<dim>1</dim>
					<dim>1</dim>
				</port>
			</input>
			<output>
				<port id="1" names="619" precision="FP16">
					<dim>1</dim>
					<dim>4</dim>
					<dim>1</dim>
					<dim>1</dim>
				</port>
			</output>
		</layer>
		<layer id="213" name="Copy_conv2.0.gate.fc2.weight/Output_0/Data_4376_const1297_const" type="Const" version="opset1">
			<data element_type="f16" offset="20724" shape="64,4,1,1" size="512"/>
			<output>
				<port id="0" names="conv2.0.gate.fc2.weight" precision="FP16">
					<dim>64</dim>
					<dim>4</dim>
					<dim>1</dim>
					<dim>1</dim>
				</port>
			</output>
		</layer>
		<layer id="214" name="620/WithoutBiases" type="Convolution" version="opset1">
			<data auto_pad="explicit" dilations="1,1" pads_begin="0,0" pads_end="0,0" strides="1,1"/>
			<input>
				<port id="0">
					<dim>1</dim>
					<dim>4</dim>
					<dim>1</dim>
					<dim>1</dim>
				</port>
				<port id="1">
					<dim>64</dim>
					<dim>4</dim>
					<dim>1</dim>
					<dim>1</dim>
				</port>
			</input>
			<output>
				<port id="2" precision="FP16">
					<dim>1</dim>
					<dim>64</dim>
					<dim>1</dim>
					<dim>1</dim>
				</port>
			</output>
		</layer>
		<layer id="215" name="620/Dims1288622683/EltwiseUnsqueeze23086_const1299_const" type="Const" version="opset1">
			<data element_type="f16" offset="21236" shape="1,64,1,1" size="128"/>
			<output>
				<port id="0" precision="FP16">
					<dim>1</dim>
					<dim>64</dim>
					<dim>1</dim>
					<dim>1</dim>
				</port>
			</output>
		</layer>
		<layer id="216" name="620" type="Add" version="opset1">
			<data auto_broadcast="numpy"/>
			<input>
				<port id="0">
					<dim>1</dim>
					<dim>64</dim>
					<dim>1</dim>
					<dim>1</dim>
				</port>
				<port id="1">
					<dim>1</dim>
					<dim>64</dim>
					<dim>1</dim>
					<dim>1</dim>
				</port>
			</input>
			<output>
				<port id="2" names="620" precision="FP16">
					<dim>1</dim>
					<dim>64</dim>
					<dim>1</dim>
					<dim>1</dim>
				</port>
			</output>
		</layer>
		<layer id="217" name="621" type="Sigmoid" version="opset1">
			<input>
				<port id="0">
					<dim>1</dim>
					<dim>64</dim>
					<dim>1</dim>
					<dim>1</dim>
				</port>
			</input>
			<output>
				<port id="1" names="621" precision="FP16">
					<dim>1</dim>
					<dim>64</dim>
					<dim>1</dim>
					<dim>1</dim>
				</port>
			</output>
		</layer>
		<layer id="218" name="60876091_const" type="Const" version="opset1">
			<data element_type="f16" offset="10108" shape="" size="2"/>
			<output>
				<port id="0" precision="FP16"/>
			</output>
		</layer>
		<layer id="219" name="60886092_const" type="Const" version="opset1">
			<data element_type="f16" offset="32508" shape="" size="2"/>
			<output>
				<port id="0" precision="FP16"/>
			</output>
		</layer>
		<layer id="220" name="60896093_const" type="Const" version="opset1">
			<data element_type="f16" offset="10108" shape="" size="2"/>
			<output>
				<port id="0" precision="FP16"/>
			</output>
		</layer>
		<layer id="221" name="60906094_const" type="Const" version="opset1">
			<data element_type="f16" offset="32508" shape="" size="2"/>
			<output>
				<port id="0" precision="FP16"/>
			</output>
		</layer>
		<layer id="222" name="622/fq_input_1" type="FakeQuantize" version="opset1">
			<data auto_broadcast="numpy" levels="256"/>
			<input>
				<port id="0">
					<dim>1</dim>
					<dim>64</dim>
					<dim>1</dim>
					<dim>1</dim>
				</port>
				<port id="1"/>
				<port id="2"/>
				<port id="3"/>
				<port id="4"/>
			</input>
			<output>
				<port id="5" precision="FP16">
					<dim>1</dim>
					<dim>64</dim>
					<dim>1</dim>
					<dim>1</dim>
				</port>
			</output>
		</layer>
		<layer id="223" name="622" type="Multiply" version="opset1">
			<data auto_broadcast="numpy"/>
			<input>
				<port id="0">
					<dim>1</dim>
					<dim>64</dim>
					<dim>64</dim>
					<dim>32</dim>
				</port>
				<port id="1">
					<dim>1</dim>
					<dim>64</dim>
					<dim>1</dim>
					<dim>1</dim>
				</port>
			</input>
			<output>
				<port id="2" names="622" precision="FP16">
					<dim>1</dim>
					<dim>64</dim>
					<dim>64</dim>
					<dim>32</dim>
				</port>
			</output>
		</layer>
		<layer id="224" name="45074511_const" type="Const" version="opset1">
			<data element_type="f16" offset="10108" shape="" size="2"/>
			<output>
				<port id="0" precision="FP16"/>
			</output>
		</layer>
		<layer id="225" name="45084512_const" type="Const" version="opset1">
			<data element_type="f16" offset="32510" shape="" size="2"/>
			<output>
				<port id="0" precision="FP16"/>
			</output>
		</layer>
		<layer id="226" name="45094513_const" type="Const" version="opset1">
			<data element_type="f16" offset="10108" shape="" size="2"/>
			<output>
				<port id="0" precision="FP16"/>
			</output>
		</layer>
		<layer id="227" name="45104514_const" type="Const" version="opset1">
			<data element_type="f16" offset="32510" shape="" size="2"/>
			<output>
				<port id="0" precision="FP16"/>
			</output>
		</layer>
		<layer id="228" name="623/fq_input_1" type="FakeQuantize" version="opset1">
			<data auto_broadcast="numpy" levels="256"/>
			<input>
				<port id="0">
					<dim>1</dim>
					<dim>64</dim>
					<dim>64</dim>
					<dim>32</dim>
				</port>
				<port id="1"/>
				<port id="2"/>
				<port id="3"/>
				<port id="4"/>
			</input>
			<output>
				<port id="5" precision="FP16">
					<dim>1</dim>
					<dim>64</dim>
					<dim>64</dim>
					<dim>32</dim>
				</port>
			</output>
		</layer>
		<layer id="229" name="623" type="Add" version="opset1">
			<data auto_broadcast="numpy"/>
			<input>
				<port id="0">
					<dim>1</dim>
					<dim>64</dim>
					<dim>64</dim>
					<dim>32</dim>
				</port>
				<port id="1">
					<dim>1</dim>
					<dim>64</dim>
					<dim>64</dim>
					<dim>32</dim>
				</port>
			</input>
			<output>
				<port id="2" names="623" precision="FP16">
					<dim>1</dim>
					<dim>64</dim>
					<dim>64</dim>
					<dim>32</dim>
				</port>
			</output>
		</layer>
		<layer id="230" name="79877991_const" type="Const" version="opset1">
			<data element_type="f16" offset="10108" shape="" size="2"/>
			<output>
				<port id="0" precision="FP16"/>
			</output>
		</layer>
		<layer id="231" name="79887992_const" type="Const" version="opset1">
			<data element_type="f16" offset="32512" shape="" size="2"/>
			<output>
				<port id="0" precision="FP16"/>
			</output>
		</layer>
		<layer id="232" name="79897993_const" type="Const" version="opset1">
			<data element_type="f16" offset="10108" shape="" size="2"/>
			<output>
				<port id="0" precision="FP16"/>
			</output>
		</layer>
		<layer id="233" name="79907994_const" type="Const" version="opset1">
			<data element_type="f16" offset="32512" shape="" size="2"/>
			<output>
				<port id="0" precision="FP16"/>
			</output>
		</layer>
		<layer id="234" name="630/fq_input_0" type="FakeQuantize" version="opset1">
			<data auto_broadcast="numpy" levels="256"/>
			<input>
				<port id="0">
					<dim>1</dim>
					<dim>64</dim>
					<dim>64</dim>
					<dim>32</dim>
				</port>
				<port id="1"/>
				<port id="2"/>
				<port id="3"/>
				<port id="4"/>
			</input>
			<output>
				<port id="5" precision="FP16">
					<dim>1</dim>
					<dim>64</dim>
					<dim>64</dim>
					<dim>32</dim>
				</port>
			</output>
		</layer>
		<layer id="235" name="conv2.0.conv2c.0.conv1.weight/quantized20499_const" type="Const" version="opset1">
			<data element_type="i8" offset="32514" shape="64,64,1,1" size="4096"/>
			<output>
				<port id="0" precision="I8">
					<dim>64</dim>
					<dim>64</dim>
					<dim>1</dim>
					<dim>1</dim>
				</port>
			</output>
		</layer>
		<layer id="236" name="conv2.0.conv2c.0.conv1.weight/quantized/to_f16" type="Convert" version="opset1">
			<data destination_type="f16"/>
			<input>
				<port id="0">
					<dim>64</dim>
					<dim>64</dim>
					<dim>1</dim>
					<dim>1</dim>
				</port>
			</input>
			<output>
				<port id="1" precision="FP16">
					<dim>64</dim>
					<dim>64</dim>
					<dim>1</dim>
					<dim>1</dim>
				</port>
			</output>
		</layer>
		<layer id="237" name="583/fq_weights_1/zero_point20512_const" type="Const" version="opset1">
			<data element_type="f16" offset="36610" shape="64,1,1,1" size="128"/>
			<output>
				<port id="0" precision="FP16">
					<dim>64</dim>
					<dim>1</dim>
					<dim>1</dim>
					<dim>1</dim>
				</port>
			</output>
		</layer>
		<layer id="238" name="583/fq_weights_1/minus_zp" type="Subtract" version="opset1">
			<data auto_broadcast="numpy"/>
			<input>
				<port id="0">
					<dim>64</dim>
					<dim>64</dim>
					<dim>1</dim>
					<dim>1</dim>
				</port>
				<port id="1">
					<dim>64</dim>
					<dim>1</dim>
					<dim>1</dim>
					<dim>1</dim>
				</port>
			</input>
			<output>
				<port id="2" precision="FP16">
					<dim>64</dim>
					<dim>64</dim>
					<dim>1</dim>
					<dim>1</dim>
				</port>
			</output>
		</layer>
		<layer id="239" name="583/fq_weights_1/scale20507_const" type="Const" version="opset1">
			<data element_type="f16" offset="36738" shape="64,1,1,1" size="128"/>
			<output>
				<port id="0" precision="FP16">
					<dim>64</dim>
					<dim>1</dim>
					<dim>1</dim>
					<dim>1</dim>
				</port>
			</output>
		</layer>
		<layer id="240" name="583/fq_weights_1/mulpiply_by_scale" type="Multiply" version="opset1">
			<data auto_broadcast="numpy"/>
			<input>
				<port id="0">
					<dim>64</dim>
					<dim>64</dim>
					<dim>1</dim>
					<dim>1</dim>
				</port>
				<port id="1">
					<dim>64</dim>
					<dim>1</dim>
					<dim>1</dim>
					<dim>1</dim>
				</port>
			</input>
			<output>
				<port id="2" precision="FP16">
					<dim>64</dim>
					<dim>64</dim>
					<dim>1</dim>
					<dim>1</dim>
				</port>
			</output>
		</layer>
		<layer id="241" name="583" type="Convolution" version="opset1">
			<data auto_pad="explicit" dilations="1,1" pads_begin="0,0" pads_end="0,0" strides="1,1"/>
			<input>
				<port id="0">
					<dim>1</dim>
					<dim>64</dim>
					<dim>64</dim>
					<dim>32</dim>
				</port>
				<port id="1">
					<dim>64</dim>
					<dim>64</dim>
					<dim>1</dim>
					<dim>1</dim>
				</port>
			</input>
			<output>
				<port id="2" names="583" precision="FP16">
					<dim>1</dim>
					<dim>64</dim>
					<dim>64</dim>
					<dim>32</dim>
				</port>
			</output>
		</layer>
		<layer id="242" name="28842886_const" type="Const" version="opset1">
			<data element_type="f16" offset="9720" shape="1,64,1,1" size="128"/>
			<output>
				<port id="0" precision="FP16">
					<dim>1</dim>
					<dim>64</dim>
					<dim>1</dim>
					<dim>1</dim>
				</port>
			</output>
		</layer>
		<layer id="243" name="583/add_" type="Add" version="opset1">
			<data auto_broadcast="numpy"/>
			<input>
				<port id="0">
					<dim>1</dim>
					<dim>64</dim>
					<dim>64</dim>
					<dim>32</dim>
				</port>
				<port id="1">
					<dim>1</dim>
					<dim>64</dim>
					<dim>1</dim>
					<dim>1</dim>
				</port>
			</input>
			<output>
				<port id="2" precision="FP16">
					<dim>1</dim>
					<dim>64</dim>
					<dim>64</dim>
					<dim>32</dim>
				</port>
			</output>
		</layer>
		<layer id="244" name="61776181_const" type="Const" version="opset1">
			<data element_type="f16" offset="36866" shape="1,64,1,1" size="128"/>
			<output>
				<port id="0" precision="FP16">
					<dim>1</dim>
					<dim>64</dim>
					<dim>1</dim>
					<dim>1</dim>
				</port>
			</output>
		</layer>
		<layer id="245" name="61786182_const" type="Const" version="opset1">
			<data element_type="f16" offset="36994" shape="1,64,1,1" size="128"/>
			<output>
				<port id="0" precision="FP16">
					<dim>1</dim>
					<dim>64</dim>
					<dim>1</dim>
					<dim>1</dim>
				</port>
			</output>
		</layer>
		<layer id="246" name="61796183_const" type="Const" version="opset1">
			<data element_type="f16" offset="36866" shape="1,64,1,1" size="128"/>
			<output>
				<port id="0" precision="FP16">
					<dim>1</dim>
					<dim>64</dim>
					<dim>1</dim>
					<dim>1</dim>
				</port>
			</output>
		</layer>
		<layer id="247" name="61806184_const" type="Const" version="opset1">
			<data element_type="f16" offset="36994" shape="1,64,1,1" size="128"/>
			<output>
				<port id="0" precision="FP16">
					<dim>1</dim>
					<dim>64</dim>
					<dim>1</dim>
					<dim>1</dim>
				</port>
			</output>
		</layer>
		<layer id="248" name="584/fq_input_0" type="FakeQuantize" version="opset1">
			<data auto_broadcast="numpy" levels="256"/>
			<input>
				<port id="0">
					<dim>1</dim>
					<dim>64</dim>
					<dim>64</dim>
					<dim>32</dim>
				</port>
				<port id="1">
					<dim>1</dim>
					<dim>64</dim>
					<dim>1</dim>
					<dim>1</dim>
				</port>
				<port id="2">
					<dim>1</dim>
					<dim>64</dim>
					<dim>1</dim>
					<dim>1</dim>
				</port>
				<port id="3">
					<dim>1</dim>
					<dim>64</dim>
					<dim>1</dim>
					<dim>1</dim>
				</port>
				<port id="4">
					<dim>1</dim>
					<dim>64</dim>
					<dim>1</dim>
					<dim>1</dim>
				</port>
			</input>
			<output>
				<port id="5" precision="FP16">
					<dim>1</dim>
					<dim>64</dim>
					<dim>64</dim>
					<dim>32</dim>
				</port>
			</output>
		</layer>
		<layer id="249" name="4219542198_const130615353/quantized19827_const" type="Const" version="opset1">
			<data element_type="i8" offset="37122" shape="64,1,3,3" size="576"/>
			<output>
				<port id="0" precision="I8">
					<dim>64</dim>
					<dim>1</dim>
					<dim>3</dim>
					<dim>3</dim>
				</port>
			</output>
		</layer>
		<layer id="250" name="4219542198_const130615353/quantized/to_f16" type="Convert" version="opset1">
			<data destination_type="f16"/>
			<input>
				<port id="0">
					<dim>64</dim>
					<dim>1</dim>
					<dim>3</dim>
					<dim>3</dim>
				</port>
			</input>
			<output>
				<port id="1" precision="FP16">
					<dim>64</dim>
					<dim>1</dim>
					<dim>3</dim>
					<dim>3</dim>
				</port>
			</output>
		</layer>
		<layer id="251" name="584/fq_weights_1/zero_point19840_const" type="Const" version="opset1">
			<data element_type="f16" offset="37698" shape="64,1,1,1" size="128"/>
			<output>
				<port id="0" precision="FP16">
					<dim>64</dim>
					<dim>1</dim>
					<dim>1</dim>
					<dim>1</dim>
				</port>
			</output>
		</layer>
		<layer id="252" name="584/fq_weights_1/minus_zp" type="Subtract" version="opset1">
			<data auto_broadcast="numpy"/>
			<input>
				<port id="0">
					<dim>64</dim>
					<dim>1</dim>
					<dim>3</dim>
					<dim>3</dim>
				</port>
				<port id="1">
					<dim>64</dim>
					<dim>1</dim>
					<dim>1</dim>
					<dim>1</dim>
				</port>
			</input>
			<output>
				<port id="2" precision="FP16">
					<dim>64</dim>
					<dim>1</dim>
					<dim>3</dim>
					<dim>3</dim>
				</port>
			</output>
		</layer>
		<layer id="253" name="584/fq_weights_1/scale19835_const" type="Const" version="opset1">
			<data element_type="f16" offset="37826" shape="64,1,1,1" size="128"/>
			<output>
				<port id="0" precision="FP16">
					<dim>64</dim>
					<dim>1</dim>
					<dim>1</dim>
					<dim>1</dim>
				</port>
			</output>
		</layer>
		<layer id="254" name="584/fq_weights_1/mulpiply_by_scale" type="Multiply" version="opset1">
			<data auto_broadcast="numpy"/>
			<input>
				<port id="0">
					<dim>64</dim>
					<dim>1</dim>
					<dim>3</dim>
					<dim>3</dim>
				</port>
				<port id="1">
					<dim>64</dim>
					<dim>1</dim>
					<dim>1</dim>
					<dim>1</dim>
				</port>
			</input>
			<output>
				<port id="2" precision="FP16">
					<dim>64</dim>
					<dim>1</dim>
					<dim>3</dim>
					<dim>3</dim>
				</port>
			</output>
		</layer>
		<layer id="255" name="24404/value24406_const" type="Const" version="opset1">
			<data element_type="i64" offset="20034" shape="5" size="40"/>
			<output>
				<port id="0" precision="I64">
					<dim>5</dim>
				</port>
			</output>
		</layer>
		<layer id="256" name="24404" type="Reshape" version="opset1">
			<data special_zero="true"/>
			<input>
				<port id="0">
					<dim>64</dim>
					<dim>1</dim>
					<dim>3</dim>
					<dim>3</dim>
				</port>
				<port id="1">
					<dim>5</dim>
				</port>
			</input>
			<output>
				<port id="2" precision="FP16">
					<dim>64</dim>
					<dim>1</dim>
					<dim>1</dim>
					<dim>3</dim>
					<dim>3</dim>
				</port>
			</output>
		</layer>
		<layer id="257" name="584" type="GroupConvolution" version="opset1">
			<data auto_pad="explicit" dilations="1,1" pads_begin="1,1" pads_end="1,1" strides="1,1"/>
			<input>
				<port id="0">
					<dim>1</dim>
					<dim>64</dim>
					<dim>64</dim>
					<dim>32</dim>
				</port>
				<port id="1">
					<dim>64</dim>
					<dim>1</dim>
					<dim>1</dim>
					<dim>3</dim>
					<dim>3</dim>
				</port>
			</input>
			<output>
				<port id="2" precision="FP16">
					<dim>1</dim>
					<dim>64</dim>
					<dim>64</dim>
					<dim>32</dim>
				</port>
			</output>
		</layer>
		<layer id="258" name="data_add_217412174622722/EltwiseUnsqueeze23234_const1308_const" type="Const" version="opset1">
			<data element_type="f16" offset="37954" shape="1,64,1,1" size="128"/>
			<output>
				<port id="0" precision="FP16">
					<dim>1</dim>
					<dim>64</dim>
					<dim>1</dim>
					<dim>1</dim>
				</port>
			</output>
		</layer>
		<layer id="259" name="585/variance/Fused_Add_" type="Add" version="opset1">
			<data auto_broadcast="numpy"/>
			<input>
				<port id="0">
					<dim>1</dim>
					<dim>64</dim>
					<dim>64</dim>
					<dim>32</dim>
				</port>
				<port id="1">
					<dim>1</dim>
					<dim>64</dim>
					<dim>1</dim>
					<dim>1</dim>
				</port>
			</input>
			<output>
				<port id="2" names="585" precision="FP16">
					<dim>1</dim>
					<dim>64</dim>
					<dim>64</dim>
					<dim>32</dim>
				</port>
			</output>
		</layer>
		<layer id="260" name="586" type="ReLU" version="opset1">
			<input>
				<port id="0">
					<dim>1</dim>
					<dim>64</dim>
					<dim>64</dim>
					<dim>32</dim>
				</port>
			</input>
			<output>
				<port id="1" names="586" precision="FP16">
					<dim>1</dim>
					<dim>64</dim>
					<dim>64</dim>
					<dim>32</dim>
				</port>
			</output>
		</layer>
		<layer id="261" name="45274531_const" type="Const" version="opset1">
			<data element_type="f16" offset="10108" shape="" size="2"/>
			<output>
				<port id="0" precision="FP16"/>
			</output>
		</layer>
		<layer id="262" name="45284532_const" type="Const" version="opset1">
			<data element_type="f16" offset="38082" shape="" size="2"/>
			<output>
				<port id="0" precision="FP16"/>
			</output>
		</layer>
		<layer id="263" name="45294533_const" type="Const" version="opset1">
			<data element_type="f16" offset="10108" shape="" size="2"/>
			<output>
				<port id="0" precision="FP16"/>
			</output>
		</layer>
		<layer id="264" name="45304534_const" type="Const" version="opset1">
			<data element_type="f16" offset="38082" shape="" size="2"/>
			<output>
				<port id="0" precision="FP16"/>
			</output>
		</layer>
		<layer id="265" name="587/fq_input_0" type="FakeQuantize" version="opset1">
			<data auto_broadcast="numpy" levels="256"/>
			<input>
				<port id="0">
					<dim>1</dim>
					<dim>64</dim>
					<dim>64</dim>
					<dim>32</dim>
				</port>
				<port id="1"/>
				<port id="2"/>
				<port id="3"/>
				<port id="4"/>
			</input>
			<output>
				<port id="5" precision="FP16">
					<dim>1</dim>
					<dim>64</dim>
					<dim>64</dim>
					<dim>32</dim>
				</port>
			</output>
		</layer>
		<layer id="266" name="conv2.0.conv2c.1.conv1.weight/quantized19395_const" type="Const" version="opset1">
			<data element_type="i8" offset="38084" shape="64,64,1,1" size="4096"/>
			<output>
				<port id="0" precision="I8">
					<dim>64</dim>
					<dim>64</dim>
					<dim>1</dim>
					<dim>1</dim>
				</port>
			</output>
		</layer>
		<layer id="267" name="conv2.0.conv2c.1.conv1.weight/quantized/to_f16" type="Convert" version="opset1">
			<data destination_type="f16"/>
			<input>
				<port id="0">
					<dim>64</dim>
					<dim>64</dim>
					<dim>1</dim>
					<dim>1</dim>
				</port>
			</input>
			<output>
				<port id="1" precision="FP16">
					<dim>64</dim>
					<dim>64</dim>
					<dim>1</dim>
					<dim>1</dim>
				</port>
			</output>
		</layer>
		<layer id="268" name="587/fq_weights_1/zero_point19408_const" type="Const" version="opset1">
			<data element_type="f16" offset="42180" shape="64,1,1,1" size="128"/>
			<output>
				<port id="0" precision="FP16">
					<dim>64</dim>
					<dim>1</dim>
					<dim>1</dim>
					<dim>1</dim>
				</port>
			</output>
		</layer>
		<layer id="269" name="587/fq_weights_1/minus_zp" type="Subtract" version="opset1">
			<data auto_broadcast="numpy"/>
			<input>
				<port id="0">
					<dim>64</dim>
					<dim>64</dim>
					<dim>1</dim>
					<dim>1</dim>
				</port>
				<port id="1">
					<dim>64</dim>
					<dim>1</dim>
					<dim>1</dim>
					<dim>1</dim>
				</port>
			</input>
			<output>
				<port id="2" precision="FP16">
					<dim>64</dim>
					<dim>64</dim>
					<dim>1</dim>
					<dim>1</dim>
				</port>
			</output>
		</layer>
		<layer id="270" name="587/fq_weights_1/scale19403_const" type="Const" version="opset1">
			<data element_type="f16" offset="42308" shape="64,1,1,1" size="128"/>
			<output>
				<port id="0" precision="FP16">
					<dim>64</dim>
					<dim>1</dim>
					<dim>1</dim>
					<dim>1</dim>
				</port>
			</output>
		</layer>
		<layer id="271" name="587/fq_weights_1/mulpiply_by_scale" type="Multiply" version="opset1">
			<data auto_broadcast="numpy"/>
			<input>
				<port id="0">
					<dim>64</dim>
					<dim>64</dim>
					<dim>1</dim>
					<dim>1</dim>
				</port>
				<port id="1">
					<dim>64</dim>
					<dim>1</dim>
					<dim>1</dim>
					<dim>1</dim>
				</port>
			</input>
			<output>
				<port id="2" precision="FP16">
					<dim>64</dim>
					<dim>64</dim>
					<dim>1</dim>
					<dim>1</dim>
				</port>
			</output>
		</layer>
		<layer id="272" name="587" type="Convolution" version="opset1">
			<data auto_pad="explicit" dilations="1,1" pads_begin="0,0" pads_end="0,0" strides="1,1"/>
			<input>
				<port id="0">
					<dim>1</dim>
					<dim>64</dim>
					<dim>64</dim>
					<dim>32</dim>
				</port>
				<port id="1">
					<dim>64</dim>
					<dim>64</dim>
					<dim>1</dim>
					<dim>1</dim>
				</port>
			</input>
			<output>
				<port id="2" names="587" precision="FP16">
					<dim>1</dim>
					<dim>64</dim>
					<dim>64</dim>
					<dim>32</dim>
				</port>
			</output>
		</layer>
		<layer id="273" name="28882890_const" type="Const" version="opset1">
			<data element_type="f16" offset="9720" shape="1,64,1,1" size="128"/>
			<output>
				<port id="0" precision="FP16">
					<dim>1</dim>
					<dim>64</dim>
					<dim>1</dim>
					<dim>1</dim>
				</port>
			</output>
		</layer>
		<layer id="274" name="587/add_" type="Add" version="opset1">
			<data auto_broadcast="numpy"/>
			<input>
				<port id="0">
					<dim>1</dim>
					<dim>64</dim>
					<dim>64</dim>
					<dim>32</dim>
				</port>
				<port id="1">
					<dim>1</dim>
					<dim>64</dim>
					<dim>1</dim>
					<dim>1</dim>
				</port>
			</input>
			<output>
				<port id="2" precision="FP16">
					<dim>1</dim>
					<dim>64</dim>
					<dim>64</dim>
					<dim>32</dim>
				</port>
			</output>
		</layer>
		<layer id="275" name="75877591_const" type="Const" version="opset1">
			<data element_type="f16" offset="42436" shape="1,64,1,1" size="128"/>
			<output>
				<port id="0" precision="FP16">
					<dim>1</dim>
					<dim>64</dim>
					<dim>1</dim>
					<dim>1</dim>
				</port>
			</output>
		</layer>
		<layer id="276" name="75887592_const" type="Const" version="opset1">
			<data element_type="f16" offset="42564" shape="1,64,1,1" size="128"/>
			<output>
				<port id="0" precision="FP16">
					<dim>1</dim>
					<dim>64</dim>
					<dim>1</dim>
					<dim>1</dim>
				</port>
			</output>
		</layer>
		<layer id="277" name="75897593_const" type="Const" version="opset1">
			<data element_type="f16" offset="42436" shape="1,64,1,1" size="128"/>
			<output>
				<port id="0" precision="FP16">
					<dim>1</dim>
					<dim>64</dim>
					<dim>1</dim>
					<dim>1</dim>
				</port>
			</output>
		</layer>
		<layer id="278" name="75907594_const" type="Const" version="opset1">
			<data element_type="f16" offset="42564" shape="1,64,1,1" size="128"/>
			<output>
				<port id="0" precision="FP16">
					<dim>1</dim>
					<dim>64</dim>
					<dim>1</dim>
					<dim>1</dim>
				</port>
			</output>
		</layer>
		<layer id="279" name="588/fq_input_0" type="FakeQuantize" version="opset1">
			<data auto_broadcast="numpy" levels="256"/>
			<input>
				<port id="0">
					<dim>1</dim>
					<dim>64</dim>
					<dim>64</dim>
					<dim>32</dim>
				</port>
				<port id="1">
					<dim>1</dim>
					<dim>64</dim>
					<dim>1</dim>
					<dim>1</dim>
				</port>
				<port id="2">
					<dim>1</dim>
					<dim>64</dim>
					<dim>1</dim>
					<dim>1</dim>
				</port>
				<port id="3">
					<dim>1</dim>
					<dim>64</dim>
					<dim>1</dim>
					<dim>1</dim>
				</port>
				<port id="4">
					<dim>1</dim>
					<dim>64</dim>
					<dim>1</dim>
					<dim>1</dim>
				</port>
			</input>
			<output>
				<port id="5" precision="FP16">
					<dim>1</dim>
					<dim>64</dim>
					<dim>64</dim>
					<dim>32</dim>
				</port>
			</output>
		</layer>
		<layer id="280" name="4222742230_const131315356/quantized17883_const" type="Const" version="opset1">
			<data element_type="i8" offset="42692" shape="64,1,3,3" size="576"/>
			<output>
				<port id="0" precision="I8">
					<dim>64</dim>
					<dim>1</dim>
					<dim>3</dim>
					<dim>3</dim>
				</port>
			</output>
		</layer>
		<layer id="281" name="4222742230_const131315356/quantized/to_f16" type="Convert" version="opset1">
			<data destination_type="f16"/>
			<input>
				<port id="0">
					<dim>64</dim>
					<dim>1</dim>
					<dim>3</dim>
					<dim>3</dim>
				</port>
			</input>
			<output>
				<port id="1" precision="FP16">
					<dim>64</dim>
					<dim>1</dim>
					<dim>3</dim>
					<dim>3</dim>
				</port>
			</output>
		</layer>
		<layer id="282" name="588/fq_weights_1/zero_point17896_const" type="Const" version="opset1">
			<data element_type="f16" offset="43268" shape="64,1,1,1" size="128"/>
			<output>
				<port id="0" precision="FP16">
					<dim>64</dim>
					<dim>1</dim>
					<dim>1</dim>
					<dim>1</dim>
				</port>
			</output>
		</layer>
		<layer id="283" name="588/fq_weights_1/minus_zp" type="Subtract" version="opset1">
			<data auto_broadcast="numpy"/>
			<input>
				<port id="0">
					<dim>64</dim>
					<dim>1</dim>
					<dim>3</dim>
					<dim>3</dim>
				</port>
				<port id="1">
					<dim>64</dim>
					<dim>1</dim>
					<dim>1</dim>
					<dim>1</dim>
				</port>
			</input>
			<output>
				<port id="2" precision="FP16">
					<dim>64</dim>
					<dim>1</dim>
					<dim>3</dim>
					<dim>3</dim>
				</port>
			</output>
		</layer>
		<layer id="284" name="588/fq_weights_1/scale17891_const" type="Const" version="opset1">
			<data element_type="f16" offset="43396" shape="64,1,1,1" size="128"/>
			<output>
				<port id="0" precision="FP16">
					<dim>64</dim>
					<dim>1</dim>
					<dim>1</dim>
					<dim>1</dim>
				</port>
			</output>
		</layer>
		<layer id="285" name="588/fq_weights_1/mulpiply_by_scale" type="Multiply" version="opset1">
			<data auto_broadcast="numpy"/>
			<input>
				<port id="0">
					<dim>64</dim>
					<dim>1</dim>
					<dim>3</dim>
					<dim>3</dim>
				</port>
				<port id="1">
					<dim>64</dim>
					<dim>1</dim>
					<dim>1</dim>
					<dim>1</dim>
				</port>
			</input>
			<output>
				<port id="2" precision="FP16">
					<dim>64</dim>
					<dim>1</dim>
					<dim>3</dim>
					<dim>3</dim>
				</port>
			</output>
		</layer>
		<layer id="286" name="24444/value24446_const" type="Const" version="opset1">
			<data element_type="i64" offset="20034" shape="5" size="40"/>
			<output>
				<port id="0" precision="I64">
					<dim>5</dim>
				</port>
			</output>
		</layer>
		<layer id="287" name="24444" type="Reshape" version="opset1">
			<data special_zero="true"/>
			<input>
				<port id="0">
					<dim>64</dim>
					<dim>1</dim>
					<dim>3</dim>
					<dim>3</dim>
				</port>
				<port id="1">
					<dim>5</dim>
				</port>
			</input>
			<output>
				<port id="2" precision="FP16">
					<dim>64</dim>
					<dim>1</dim>
					<dim>1</dim>
					<dim>3</dim>
					<dim>3</dim>
				</port>
			</output>
		</layer>
		<layer id="288" name="588" type="GroupConvolution" version="opset1">
			<data auto_pad="explicit" dilations="1,1" pads_begin="1,1" pads_end="1,1" strides="1,1"/>
			<input>
				<port id="0">
					<dim>1</dim>
					<dim>64</dim>
					<dim>64</dim>
					<dim>32</dim>
				</port>
				<port id="1">
					<dim>64</dim>
					<dim>1</dim>
					<dim>1</dim>
					<dim>3</dim>
					<dim>3</dim>
				</port>
			</input>
			<output>
				<port id="2" precision="FP16">
					<dim>1</dim>
					<dim>64</dim>
					<dim>64</dim>
					<dim>32</dim>
				</port>
			</output>
		</layer>
		<layer id="289" name="data_add_217492175422724/EltwiseUnsqueeze23242_const1315_const" type="Const" version="opset1">
			<data element_type="f16" offset="43524" shape="1,64,1,1" size="128"/>
			<output>
				<port id="0" precision="FP16">
					<dim>1</dim>
					<dim>64</dim>
					<dim>1</dim>
					<dim>1</dim>
				</port>
			</output>
		</layer>
		<layer id="290" name="589/variance/Fused_Add_" type="Add" version="opset1">
			<data auto_broadcast="numpy"/>
			<input>
				<port id="0">
					<dim>1</dim>
					<dim>64</dim>
					<dim>64</dim>
					<dim>32</dim>
				</port>
				<port id="1">
					<dim>1</dim>
					<dim>64</dim>
					<dim>1</dim>
					<dim>1</dim>
				</port>
			</input>
			<output>
				<port id="2" names="589" precision="FP16">
					<dim>1</dim>
					<dim>64</dim>
					<dim>64</dim>
					<dim>32</dim>
				</port>
			</output>
		</layer>
		<layer id="291" name="590" type="ReLU" version="opset1">
			<input>
				<port id="0">
					<dim>1</dim>
					<dim>64</dim>
					<dim>64</dim>
					<dim>32</dim>
				</port>
			</input>
			<output>
				<port id="1" names="590" precision="FP16">
					<dim>1</dim>
					<dim>64</dim>
					<dim>64</dim>
					<dim>32</dim>
				</port>
			</output>
		</layer>
		<layer id="292" name="76077611_const" type="Const" version="opset1">
			<data element_type="f16" offset="10108" shape="" size="2"/>
			<output>
				<port id="0" precision="FP16"/>
			</output>
		</layer>
		<layer id="293" name="76087612_const" type="Const" version="opset1">
			<data element_type="f16" offset="43652" shape="" size="2"/>
			<output>
				<port id="0" precision="FP16"/>
			</output>
		</layer>
		<layer id="294" name="76097613_const" type="Const" version="opset1">
			<data element_type="f16" offset="10108" shape="" size="2"/>
			<output>
				<port id="0" precision="FP16"/>
			</output>
		</layer>
		<layer id="295" name="76107614_const" type="Const" version="opset1">
			<data element_type="f16" offset="43652" shape="" size="2"/>
			<output>
				<port id="0" precision="FP16"/>
			</output>
		</layer>
		<layer id="296" name="591/fq_input_0" type="FakeQuantize" version="opset1">
			<data auto_broadcast="numpy" levels="256"/>
			<input>
				<port id="0">
					<dim>1</dim>
					<dim>64</dim>
					<dim>64</dim>
					<dim>32</dim>
				</port>
				<port id="1"/>
				<port id="2"/>
				<port id="3"/>
				<port id="4"/>
			</input>
			<output>
				<port id="5" precision="FP16">
					<dim>1</dim>
					<dim>64</dim>
					<dim>64</dim>
					<dim>32</dim>
				</port>
			</output>
		</layer>
		<layer id="297" name="conv2.0.conv2c.2.conv1.weight/quantized19971_const" type="Const" version="opset1">
			<data element_type="i8" offset="43654" shape="64,64,1,1" size="4096"/>
			<output>
				<port id="0" precision="I8">
					<dim>64</dim>
					<dim>64</dim>
					<dim>1</dim>
					<dim>1</dim>
				</port>
			</output>
		</layer>
		<layer id="298" name="conv2.0.conv2c.2.conv1.weight/quantized/to_f16" type="Convert" version="opset1">
			<data destination_type="f16"/>
			<input>
				<port id="0">
					<dim>64</dim>
					<dim>64</dim>
					<dim>1</dim>
					<dim>1</dim>
				</port>
			</input>
			<output>
				<port id="1" precision="FP16">
					<dim>64</dim>
					<dim>64</dim>
					<dim>1</dim>
					<dim>1</dim>
				</port>
			</output>
		</layer>
		<layer id="299" name="591/fq_weights_1/zero_point19984_const" type="Const" version="opset1">
			<data element_type="f16" offset="47750" shape="64,1,1,1" size="128"/>
			<output>
				<port id="0" precision="FP16">
					<dim>64</dim>
					<dim>1</dim>
					<dim>1</dim>
					<dim>1</dim>
				</port>
			</output>
		</layer>
		<layer id="300" name="591/fq_weights_1/minus_zp" type="Subtract" version="opset1">
			<data auto_broadcast="numpy"/>
			<input>
				<port id="0">
					<dim>64</dim>
					<dim>64</dim>
					<dim>1</dim>
					<dim>1</dim>
				</port>
				<port id="1">
					<dim>64</dim>
					<dim>1</dim>
					<dim>1</dim>
					<dim>1</dim>
				</port>
			</input>
			<output>
				<port id="2" precision="FP16">
					<dim>64</dim>
					<dim>64</dim>
					<dim>1</dim>
					<dim>1</dim>
				</port>
			</output>
		</layer>
		<layer id="301" name="591/fq_weights_1/scale19979_const" type="Const" version="opset1">
			<data element_type="f16" offset="47878" shape="64,1,1,1" size="128"/>
			<output>
				<port id="0" precision="FP16">
					<dim>64</dim>
					<dim>1</dim>
					<dim>1</dim>
					<dim>1</dim>
				</port>
			</output>
		</layer>
		<layer id="302" name="591/fq_weights_1/mulpiply_by_scale" type="Multiply" version="opset1">
			<data auto_broadcast="numpy"/>
			<input>
				<port id="0">
					<dim>64</dim>
					<dim>64</dim>
					<dim>1</dim>
					<dim>1</dim>
				</port>
				<port id="1">
					<dim>64</dim>
					<dim>1</dim>
					<dim>1</dim>
					<dim>1</dim>
				</port>
			</input>
			<output>
				<port id="2" precision="FP16">
					<dim>64</dim>
					<dim>64</dim>
					<dim>1</dim>
					<dim>1</dim>
				</port>
			</output>
		</layer>
		<layer id="303" name="591" type="Convolution" version="opset1">
			<data auto_pad="explicit" dilations="1,1" pads_begin="0,0" pads_end="0,0" strides="1,1"/>
			<input>
				<port id="0">
					<dim>1</dim>
					<dim>64</dim>
					<dim>64</dim>
					<dim>32</dim>
				</port>
				<port id="1">
					<dim>64</dim>
					<dim>64</dim>
					<dim>1</dim>
					<dim>1</dim>
				</port>
			</input>
			<output>
				<port id="2" names="591" precision="FP16">
					<dim>1</dim>
					<dim>64</dim>
					<dim>64</dim>
					<dim>32</dim>
				</port>
			</output>
		</layer>
		<layer id="304" name="28922894_const" type="Const" version="opset1">
			<data element_type="f16" offset="9720" shape="1,64,1,1" size="128"/>
			<output>
				<port id="0" precision="FP16">
					<dim>1</dim>
					<dim>64</dim>
					<dim>1</dim>
					<dim>1</dim>
				</port>
			</output>
		</layer>
		<layer id="305" name="591/add_" type="Add" version="opset1">
			<data auto_broadcast="numpy"/>
			<input>
				<port id="0">
					<dim>1</dim>
					<dim>64</dim>
					<dim>64</dim>
					<dim>32</dim>
				</port>
				<port id="1">
					<dim>1</dim>
					<dim>64</dim>
					<dim>1</dim>
					<dim>1</dim>
				</port>
			</input>
			<output>
				<port id="2" precision="FP16">
					<dim>1</dim>
					<dim>64</dim>
					<dim>64</dim>
					<dim>32</dim>
				</port>
			</output>
		</layer>
		<layer id="306" name="74477451_const" type="Const" version="opset1">
			<data element_type="f16" offset="48006" shape="1,64,1,1" size="128"/>
			<output>
				<port id="0" precision="FP16">
					<dim>1</dim>
					<dim>64</dim>
					<dim>1</dim>
					<dim>1</dim>
				</port>
			</output>
		</layer>
		<layer id="307" name="74487452_const" type="Const" version="opset1">
			<data element_type="f16" offset="48134" shape="1,64,1,1" size="128"/>
			<output>
				<port id="0" precision="FP16">
					<dim>1</dim>
					<dim>64</dim>
					<dim>1</dim>
					<dim>1</dim>
				</port>
			</output>
		</layer>
		<layer id="308" name="74497453_const" type="Const" version="opset1">
			<data element_type="f16" offset="48006" shape="1,64,1,1" size="128"/>
			<output>
				<port id="0" precision="FP16">
					<dim>1</dim>
					<dim>64</dim>
					<dim>1</dim>
					<dim>1</dim>
				</port>
			</output>
		</layer>
		<layer id="309" name="74507454_const" type="Const" version="opset1">
			<data element_type="f16" offset="48134" shape="1,64,1,1" size="128"/>
			<output>
				<port id="0" precision="FP16">
					<dim>1</dim>
					<dim>64</dim>
					<dim>1</dim>
					<dim>1</dim>
				</port>
			</output>
		</layer>
		<layer id="310" name="592/fq_input_0" type="FakeQuantize" version="opset1">
			<data auto_broadcast="numpy" levels="256"/>
			<input>
				<port id="0">
					<dim>1</dim>
					<dim>64</dim>
					<dim>64</dim>
					<dim>32</dim>
				</port>
				<port id="1">
					<dim>1</dim>
					<dim>64</dim>
					<dim>1</dim>
					<dim>1</dim>
				</port>
				<port id="2">
					<dim>1</dim>
					<dim>64</dim>
					<dim>1</dim>
					<dim>1</dim>
				</port>
				<port id="3">
					<dim>1</dim>
					<dim>64</dim>
					<dim>1</dim>
					<dim>1</dim>
				</port>
				<port id="4">
					<dim>1</dim>
					<dim>64</dim>
					<dim>1</dim>
					<dim>1</dim>
				</port>
			</input>
			<output>
				<port id="5" precision="FP16">
					<dim>1</dim>
					<dim>64</dim>
					<dim>64</dim>
					<dim>32</dim>
				</port>
			</output>
		</layer>
		<layer id="311" name="4225942262_const132015359/quantized20235_const" type="Const" version="opset1">
			<data element_type="i8" offset="48262" shape="64,1,3,3" size="576"/>
			<output>
				<port id="0" precision="I8">
					<dim>64</dim>
					<dim>1</dim>
					<dim>3</dim>
					<dim>3</dim>
				</port>
			</output>
		</layer>
		<layer id="312" name="4225942262_const132015359/quantized/to_f16" type="Convert" version="opset1">
			<data destination_type="f16"/>
			<input>
				<port id="0">
					<dim>64</dim>
					<dim>1</dim>
					<dim>3</dim>
					<dim>3</dim>
				</port>
			</input>
			<output>
				<port id="1" precision="FP16">
					<dim>64</dim>
					<dim>1</dim>
					<dim>3</dim>
					<dim>3</dim>
				</port>
			</output>
		</layer>
		<layer id="313" name="592/fq_weights_1/zero_point20248_const" type="Const" version="opset1">
			<data element_type="f16" offset="48838" shape="64,1,1,1" size="128"/>
			<output>
				<port id="0" precision="FP16">
					<dim>64</dim>
					<dim>1</dim>
					<dim>1</dim>
					<dim>1</dim>
				</port>
			</output>
		</layer>
		<layer id="314" name="592/fq_weights_1/minus_zp" type="Subtract" version="opset1">
			<data auto_broadcast="numpy"/>
			<input>
				<port id="0">
					<dim>64</dim>
					<dim>1</dim>
					<dim>3</dim>
					<dim>3</dim>
				</port>
				<port id="1">
					<dim>64</dim>
					<dim>1</dim>
					<dim>1</dim>
					<dim>1</dim>
				</port>
			</input>
			<output>
				<port id="2" precision="FP16">
					<dim>64</dim>
					<dim>1</dim>
					<dim>3</dim>
					<dim>3</dim>
				</port>
			</output>
		</layer>
		<layer id="315" name="592/fq_weights_1/scale20243_const" type="Const" version="opset1">
			<data element_type="f16" offset="48966" shape="64,1,1,1" size="128"/>
			<output>
				<port id="0" precision="FP16">
					<dim>64</dim>
					<dim>1</dim>
					<dim>1</dim>
					<dim>1</dim>
				</port>
			</output>
		</layer>
		<layer id="316" name="592/fq_weights_1/mulpiply_by_scale" type="Multiply" version="opset1">
			<data auto_broadcast="numpy"/>
			<input>
				<port id="0">
					<dim>64</dim>
					<dim>1</dim>
					<dim>3</dim>
					<dim>3</dim>
				</port>
				<port id="1">
					<dim>64</dim>
					<dim>1</dim>
					<dim>1</dim>
					<dim>1</dim>
				</port>
			</input>
			<output>
				<port id="2" precision="FP16">
					<dim>64</dim>
					<dim>1</dim>
					<dim>3</dim>
					<dim>3</dim>
				</port>
			</output>
		</layer>
		<layer id="317" name="24604/value24606_const" type="Const" version="opset1">
			<data element_type="i64" offset="20034" shape="5" size="40"/>
			<output>
				<port id="0" precision="I64">
					<dim>5</dim>
				</port>
			</output>
		</layer>
		<layer id="318" name="24604" type="Reshape" version="opset1">
			<data special_zero="true"/>
			<input>
				<port id="0">
					<dim>64</dim>
					<dim>1</dim>
					<dim>3</dim>
					<dim>3</dim>
				</port>
				<port id="1">
					<dim>5</dim>
				</port>
			</input>
			<output>
				<port id="2" precision="FP16">
					<dim>64</dim>
					<dim>1</dim>
					<dim>1</dim>
					<dim>3</dim>
					<dim>3</dim>
				</port>
			</output>
		</layer>
		<layer id="319" name="592" type="GroupConvolution" version="opset1">
			<data auto_pad="explicit" dilations="1,1" pads_begin="1,1" pads_end="1,1" strides="1,1"/>
			<input>
				<port id="0">
					<dim>1</dim>
					<dim>64</dim>
					<dim>64</dim>
					<dim>32</dim>
				</port>
				<port id="1">
					<dim>64</dim>
					<dim>1</dim>
					<dim>1</dim>
					<dim>3</dim>
					<dim>3</dim>
				</port>
			</input>
			<output>
				<port id="2" precision="FP16">
					<dim>1</dim>
					<dim>64</dim>
					<dim>64</dim>
					<dim>32</dim>
				</port>
			</output>
		</layer>
		<layer id="320" name="data_add_217572176222726/EltwiseUnsqueeze23250_const1322_const" type="Const" version="opset1">
			<data element_type="f16" offset="49094" shape="1,64,1,1" size="128"/>
			<output>
				<port id="0" precision="FP16">
					<dim>1</dim>
					<dim>64</dim>
					<dim>1</dim>
					<dim>1</dim>
				</port>
			</output>
		</layer>
		<layer id="321" name="593/variance/Fused_Add_" type="Add" version="opset1">
			<data auto_broadcast="numpy"/>
			<input>
				<port id="0">
					<dim>1</dim>
					<dim>64</dim>
					<dim>64</dim>
					<dim>32</dim>
				</port>
				<port id="1">
					<dim>1</dim>
					<dim>64</dim>
					<dim>1</dim>
					<dim>1</dim>
				</port>
			</input>
			<output>
				<port id="2" names="593" precision="FP16">
					<dim>1</dim>
					<dim>64</dim>
					<dim>64</dim>
					<dim>32</dim>
				</port>
			</output>
		</layer>
		<layer id="322" name="594" type="ReLU" version="opset1">
			<input>
				<port id="0">
					<dim>1</dim>
					<dim>64</dim>
					<dim>64</dim>
					<dim>32</dim>
				</port>
			</input>
			<output>
				<port id="1" names="594" precision="FP16">
					<dim>1</dim>
					<dim>64</dim>
					<dim>64</dim>
					<dim>32</dim>
				</port>
			</output>
		</layer>
		<layer id="323" name="68676871_const" type="Const" version="opset1">
			<data element_type="f16" offset="10108" shape="" size="2"/>
			<output>
				<port id="0" precision="FP16"/>
			</output>
		</layer>
		<layer id="324" name="68686872_const" type="Const" version="opset1">
			<data element_type="f16" offset="49222" shape="" size="2"/>
			<output>
				<port id="0" precision="FP16"/>
			</output>
		</layer>
		<layer id="325" name="68696873_const" type="Const" version="opset1">
			<data element_type="f16" offset="10108" shape="" size="2"/>
			<output>
				<port id="0" precision="FP16"/>
			</output>
		</layer>
		<layer id="326" name="68706874_const" type="Const" version="opset1">
			<data element_type="f16" offset="49222" shape="" size="2"/>
			<output>
				<port id="0" precision="FP16"/>
			</output>
		</layer>
		<layer id="327" name="624/reduce/fq_input_0" type="FakeQuantize" version="opset1">
			<data auto_broadcast="numpy" levels="256"/>
			<input>
				<port id="0">
					<dim>1</dim>
					<dim>64</dim>
					<dim>64</dim>
					<dim>32</dim>
				</port>
				<port id="1"/>
				<port id="2"/>
				<port id="3"/>
				<port id="4"/>
			</input>
			<output>
				<port id="5" precision="FP16">
					<dim>1</dim>
					<dim>64</dim>
					<dim>64</dim>
					<dim>32</dim>
				</port>
			</output>
		</layer>
		<layer id="328" name="1334/Output_0/Data__const1325_const" type="Const" version="opset1">
			<data element_type="i64" offset="24" shape="" size="8"/>
			<output>
				<port id="0" precision="I64"/>
			</output>
		</layer>
		<layer id="329" name="624/input_rank/shape_of" type="ShapeOf" version="opset3">
			<data output_type="i64"/>
			<input>
				<port id="0">
					<dim>1</dim>
					<dim>64</dim>
					<dim>64</dim>
					<dim>32</dim>
				</port>
			</input>
			<output>
				<port id="1" precision="I64">
					<dim>4</dim>
				</port>
			</output>
		</layer>
		<layer id="330" name="624/input_rank/rank_of" type="ShapeOf" version="opset3">
			<data output_type="i64"/>
			<input>
				<port id="0">
					<dim>4</dim>
				</port>
			</input>
			<output>
				<port id="1" precision="I64">
					<dim>1</dim>
				</port>
			</output>
		</layer>
		<layer id="331" name="624/input_rank/0d_rank_of/value/Output_0/Data__const1328_const" type="Const" version="opset1">
			<data element_type="i64" offset="32" shape="1" size="8"/>
			<output>
				<port id="0" precision="I64">
					<dim>1</dim>
				</port>
			</output>
		</layer>
		<layer id="332" name="624/input_rank" type="Squeeze" version="opset1">
			<input>
				<port id="0">
					<dim>1</dim>
				</port>
				<port id="1">
					<dim>1</dim>
				</port>
			</input>
			<output>
				<port id="2" precision="I64"/>
			</output>
		</layer>
		<layer id="333" name="1336/Output_0/Data__const1330_const" type="Const" version="opset1">
			<data element_type="i64" offset="0" shape="" size="8"/>
			<output>
				<port id="0" precision="I64"/>
			</output>
		</layer>
		<layer id="334" name="624/global_pooling_reduce_axis" type="Range" version="opset4">
			<data output_type="i64"/>
			<input>
				<port id="0"/>
				<port id="1"/>
				<port id="2"/>
			</input>
			<output>
				<port id="3" precision="I64">
					<dim>2</dim>
				</port>
			</output>
		</layer>
		<layer id="335" name="624/reduce" type="ReduceMean" version="opset1">
			<data keep_dims="true"/>
			<input>
				<port id="0">
					<dim>1</dim>
					<dim>64</dim>
					<dim>64</dim>
					<dim>32</dim>
				</port>
				<port id="1">
					<dim>2</dim>
				</port>
			</input>
			<output>
				<port id="2" names="624" precision="FP16">
					<dim>1</dim>
					<dim>64</dim>
					<dim>1</dim>
					<dim>1</dim>
				</port>
			</output>
		</layer>
		<layer id="336" name="Copy_conv2.0.gate.fc1.weight/Output_0/Data_4369_const1333_const" type="Const" version="opset1">
			<data element_type="f16" offset="20204" shape="4,64,1,1" size="512"/>
			<output>
				<port id="0" names="conv2.0.gate.fc1.weight" precision="FP16">
					<dim>4</dim>
					<dim>64</dim>
					<dim>1</dim>
					<dim>1</dim>
				</port>
			</output>
		</layer>
		<layer id="337" name="625/WithoutBiases" type="Convolution" version="opset1">
			<data auto_pad="explicit" dilations="1,1" pads_begin="0,0" pads_end="0,0" strides="1,1"/>
			<input>
				<port id="0">
					<dim>1</dim>
					<dim>64</dim>
					<dim>1</dim>
					<dim>1</dim>
				</port>
				<port id="1">
					<dim>4</dim>
					<dim>64</dim>
					<dim>1</dim>
					<dim>1</dim>
				</port>
			</input>
			<output>
				<port id="2" precision="FP16">
					<dim>1</dim>
					<dim>4</dim>
					<dim>1</dim>
					<dim>1</dim>
				</port>
			</output>
		</layer>
		<layer id="338" name="625/Dims1302422706/EltwiseUnsqueeze23178_const1335_const" type="Const" version="opset1">
			<data element_type="f16" offset="20716" shape="1,4,1,1" size="8"/>
			<output>
				<port id="0" precision="FP16">
					<dim>1</dim>
					<dim>4</dim>
					<dim>1</dim>
					<dim>1</dim>
				</port>
			</output>
		</layer>
		<layer id="339" name="625" type="Add" version="opset1">
			<data auto_broadcast="numpy"/>
			<input>
				<port id="0">
					<dim>1</dim>
					<dim>4</dim>
					<dim>1</dim>
					<dim>1</dim>
				</port>
				<port id="1">
					<dim>1</dim>
					<dim>4</dim>
					<dim>1</dim>
					<dim>1</dim>
				</port>
			</input>
			<output>
				<port id="2" names="625" precision="FP16">
					<dim>1</dim>
					<dim>4</dim>
					<dim>1</dim>
					<dim>1</dim>
				</port>
			</output>
		</layer>
		<layer id="340" name="626" type="ReLU" version="opset1">
			<input>
				<port id="0">
					<dim>1</dim>
					<dim>4</dim>
					<dim>1</dim>
					<dim>1</dim>
				</port>
			</input>
			<output>
				<port id="1" names="626" precision="FP16">
					<dim>1</dim>
					<dim>4</dim>
					<dim>1</dim>
					<dim>1</dim>
				</port>
			</output>
		</layer>
		<layer id="341" name="Copy_conv2.0.gate.fc2.weight/Output_0/Data_4377_const1338_const" type="Const" version="opset1">
			<data element_type="f16" offset="20724" shape="64,4,1,1" size="512"/>
			<output>
				<port id="0" names="conv2.0.gate.fc2.weight" precision="FP16">
					<dim>64</dim>
					<dim>4</dim>
					<dim>1</dim>
					<dim>1</dim>
				</port>
			</output>
		</layer>
		<layer id="342" name="627/WithoutBiases" type="Convolution" version="opset1">
			<data auto_pad="explicit" dilations="1,1" pads_begin="0,0" pads_end="0,0" strides="1,1"/>
			<input>
				<port id="0">
					<dim>1</dim>
					<dim>4</dim>
					<dim>1</dim>
					<dim>1</dim>
				</port>
				<port id="1">
					<dim>64</dim>
					<dim>4</dim>
					<dim>1</dim>
					<dim>1</dim>
				</port>
			</input>
			<output>
				<port id="2" precision="FP16">
					<dim>1</dim>
					<dim>64</dim>
					<dim>1</dim>
					<dim>1</dim>
				</port>
			</output>
		</layer>
		<layer id="343" name="627/Dims1300022702/EltwiseUnsqueeze23162_const1340_const" type="Const" version="opset1">
			<data element_type="f16" offset="21236" shape="1,64,1,1" size="128"/>
			<output>
				<port id="0" precision="FP16">
					<dim>1</dim>
					<dim>64</dim>
					<dim>1</dim>
					<dim>1</dim>
				</port>
			</output>
		</layer>
		<layer id="344" name="627" type="Add" version="opset1">
			<data auto_broadcast="numpy"/>
			<input>
				<port id="0">
					<dim>1</dim>
					<dim>64</dim>
					<dim>1</dim>
					<dim>1</dim>
				</port>
				<port id="1">
					<dim>1</dim>
					<dim>64</dim>
					<dim>1</dim>
					<dim>1</dim>
				</port>
			</input>
			<output>
				<port id="2" names="627" precision="FP16">
					<dim>1</dim>
					<dim>64</dim>
					<dim>1</dim>
					<dim>1</dim>
				</port>
			</output>
		</layer>
		<layer id="345" name="628" type="Sigmoid" version="opset1">
			<input>
				<port id="0">
					<dim>1</dim>
					<dim>64</dim>
					<dim>1</dim>
					<dim>1</dim>
				</port>
			</input>
			<output>
				<port id="1" names="628" precision="FP16">
					<dim>1</dim>
					<dim>64</dim>
					<dim>1</dim>
					<dim>1</dim>
				</port>
			</output>
		</layer>
		<layer id="346" name="75677571_const" type="Const" version="opset1">
			<data element_type="f16" offset="10108" shape="" size="2"/>
			<output>
				<port id="0" precision="FP16"/>
			</output>
		</layer>
		<layer id="347" name="75687572_const" type="Const" version="opset1">
			<data element_type="f16" offset="49224" shape="" size="2"/>
			<output>
				<port id="0" precision="FP16"/>
			</output>
		</layer>
		<layer id="348" name="75697573_const" type="Const" version="opset1">
			<data element_type="f16" offset="10108" shape="" size="2"/>
			<output>
				<port id="0" precision="FP16"/>
			</output>
		</layer>
		<layer id="349" name="75707574_const" type="Const" version="opset1">
			<data element_type="f16" offset="49224" shape="" size="2"/>
			<output>
				<port id="0" precision="FP16"/>
			</output>
		</layer>
		<layer id="350" name="629/fq_input_1" type="FakeQuantize" version="opset1">
			<data auto_broadcast="numpy" levels="256"/>
			<input>
				<port id="0">
					<dim>1</dim>
					<dim>64</dim>
					<dim>1</dim>
					<dim>1</dim>
				</port>
				<port id="1"/>
				<port id="2"/>
				<port id="3"/>
				<port id="4"/>
			</input>
			<output>
				<port id="5" precision="FP16">
					<dim>1</dim>
					<dim>64</dim>
					<dim>1</dim>
					<dim>1</dim>
				</port>
			</output>
		</layer>
		<layer id="351" name="629" type="Multiply" version="opset1">
			<data auto_broadcast="numpy"/>
			<input>
				<port id="0">
					<dim>1</dim>
					<dim>64</dim>
					<dim>64</dim>
					<dim>32</dim>
				</port>
				<port id="1">
					<dim>1</dim>
					<dim>64</dim>
					<dim>1</dim>
					<dim>1</dim>
				</port>
			</input>
			<output>
				<port id="2" names="629" precision="FP16">
					<dim>1</dim>
					<dim>64</dim>
					<dim>64</dim>
					<dim>32</dim>
				</port>
			</output>
		</layer>
		<layer id="352" name="79978001_const" type="Const" version="opset1">
			<data element_type="f16" offset="10108" shape="" size="2"/>
			<output>
				<port id="0" precision="FP16"/>
			</output>
		</layer>
		<layer id="353" name="79988002_const" type="Const" version="opset1">
			<data element_type="f16" offset="49226" shape="" size="2"/>
			<output>
				<port id="0" precision="FP16"/>
			</output>
		</layer>
		<layer id="354" name="79998003_const" type="Const" version="opset1">
			<data element_type="f16" offset="10108" shape="" size="2"/>
			<output>
				<port id="0" precision="FP16"/>
			</output>
		</layer>
		<layer id="355" name="80008004_const" type="Const" version="opset1">
			<data element_type="f16" offset="49226" shape="" size="2"/>
			<output>
				<port id="0" precision="FP16"/>
			</output>
		</layer>
		<layer id="356" name="630/fq_input_1" type="FakeQuantize" version="opset1">
			<data auto_broadcast="numpy" levels="256"/>
			<input>
				<port id="0">
					<dim>1</dim>
					<dim>64</dim>
					<dim>64</dim>
					<dim>32</dim>
				</port>
				<port id="1"/>
				<port id="2"/>
				<port id="3"/>
				<port id="4"/>
			</input>
			<output>
				<port id="5" precision="FP16">
					<dim>1</dim>
					<dim>64</dim>
					<dim>64</dim>
					<dim>32</dim>
				</port>
			</output>
		</layer>
		<layer id="357" name="630" type="Add" version="opset1">
			<data auto_broadcast="numpy"/>
			<input>
				<port id="0">
					<dim>1</dim>
					<dim>64</dim>
					<dim>64</dim>
					<dim>32</dim>
				</port>
				<port id="1">
					<dim>1</dim>
					<dim>64</dim>
					<dim>64</dim>
					<dim>32</dim>
				</port>
			</input>
			<output>
				<port id="2" names="630" precision="FP16">
					<dim>1</dim>
					<dim>64</dim>
					<dim>64</dim>
					<dim>32</dim>
				</port>
			</output>
		</layer>
		<layer id="358" name="69876991_const" type="Const" version="opset1">
			<data element_type="f16" offset="10108" shape="" size="2"/>
			<output>
				<port id="0" precision="FP16"/>
			</output>
		</layer>
		<layer id="359" name="69886992_const" type="Const" version="opset1">
			<data element_type="f16" offset="49228" shape="" size="2"/>
			<output>
				<port id="0" precision="FP16"/>
			</output>
		</layer>
		<layer id="360" name="69896993_const" type="Const" version="opset1">
			<data element_type="f16" offset="10108" shape="" size="2"/>
			<output>
				<port id="0" precision="FP16"/>
			</output>
		</layer>
		<layer id="361" name="69906994_const" type="Const" version="opset1">
			<data element_type="f16" offset="49228" shape="" size="2"/>
			<output>
				<port id="0" precision="FP16"/>
			</output>
		</layer>
		<layer id="362" name="637/fq_input_0" type="FakeQuantize" version="opset1">
			<data auto_broadcast="numpy" levels="256"/>
			<input>
				<port id="0">
					<dim>1</dim>
					<dim>64</dim>
					<dim>64</dim>
					<dim>32</dim>
				</port>
				<port id="1"/>
				<port id="2"/>
				<port id="3"/>
				<port id="4"/>
			</input>
			<output>
				<port id="5" precision="FP16">
					<dim>1</dim>
					<dim>64</dim>
					<dim>64</dim>
					<dim>32</dim>
				</port>
			</output>
		</layer>
		<layer id="363" name="conv2.0.conv2d.0.conv1.weight/quantized19203_const" type="Const" version="opset1">
			<data element_type="i8" offset="49230" shape="64,64,1,1" size="4096"/>
			<output>
				<port id="0" precision="I8">
					<dim>64</dim>
					<dim>64</dim>
					<dim>1</dim>
					<dim>1</dim>
				</port>
			</output>
		</layer>
		<layer id="364" name="conv2.0.conv2d.0.conv1.weight/quantized/to_f16" type="Convert" version="opset1">
			<data destination_type="f16"/>
			<input>
				<port id="0">
					<dim>64</dim>
					<dim>64</dim>
					<dim>1</dim>
					<dim>1</dim>
				</port>
			</input>
			<output>
				<port id="1" precision="FP16">
					<dim>64</dim>
					<dim>64</dim>
					<dim>1</dim>
					<dim>1</dim>
				</port>
			</output>
		</layer>
		<layer id="365" name="595/fq_weights_1/zero_point19216_const" type="Const" version="opset1">
			<data element_type="f16" offset="53326" shape="64,1,1,1" size="128"/>
			<output>
				<port id="0" precision="FP16">
					<dim>64</dim>
					<dim>1</dim>
					<dim>1</dim>
					<dim>1</dim>
				</port>
			</output>
		</layer>
		<layer id="366" name="595/fq_weights_1/minus_zp" type="Subtract" version="opset1">
			<data auto_broadcast="numpy"/>
			<input>
				<port id="0">
					<dim>64</dim>
					<dim>64</dim>
					<dim>1</dim>
					<dim>1</dim>
				</port>
				<port id="1">
					<dim>64</dim>
					<dim>1</dim>
					<dim>1</dim>
					<dim>1</dim>
				</port>
			</input>
			<output>
				<port id="2" precision="FP16">
					<dim>64</dim>
					<dim>64</dim>
					<dim>1</dim>
					<dim>1</dim>
				</port>
			</output>
		</layer>
		<layer id="367" name="595/fq_weights_1/scale19211_const" type="Const" version="opset1">
			<data element_type="f16" offset="53454" shape="64,1,1,1" size="128"/>
			<output>
				<port id="0" precision="FP16">
					<dim>64</dim>
					<dim>1</dim>
					<dim>1</dim>
					<dim>1</dim>
				</port>
			</output>
		</layer>
		<layer id="368" name="595/fq_weights_1/mulpiply_by_scale" type="Multiply" version="opset1">
			<data auto_broadcast="numpy"/>
			<input>
				<port id="0">
					<dim>64</dim>
					<dim>64</dim>
					<dim>1</dim>
					<dim>1</dim>
				</port>
				<port id="1">
					<dim>64</dim>
					<dim>1</dim>
					<dim>1</dim>
					<dim>1</dim>
				</port>
			</input>
			<output>
				<port id="2" precision="FP16">
					<dim>64</dim>
					<dim>64</dim>
					<dim>1</dim>
					<dim>1</dim>
				</port>
			</output>
		</layer>
		<layer id="369" name="595" type="Convolution" version="opset1">
			<data auto_pad="explicit" dilations="1,1" pads_begin="0,0" pads_end="0,0" strides="1,1"/>
			<input>
				<port id="0">
					<dim>1</dim>
					<dim>64</dim>
					<dim>64</dim>
					<dim>32</dim>
				</port>
				<port id="1">
					<dim>64</dim>
					<dim>64</dim>
					<dim>1</dim>
					<dim>1</dim>
				</port>
			</input>
			<output>
				<port id="2" names="595" precision="FP16">
					<dim>1</dim>
					<dim>64</dim>
					<dim>64</dim>
					<dim>32</dim>
				</port>
			</output>
		</layer>
		<layer id="370" name="28962898_const" type="Const" version="opset1">
			<data element_type="f16" offset="9720" shape="1,64,1,1" size="128"/>
			<output>
				<port id="0" precision="FP16">
					<dim>1</dim>
					<dim>64</dim>
					<dim>1</dim>
					<dim>1</dim>
				</port>
			</output>
		</layer>
		<layer id="371" name="595/add_" type="Add" version="opset1">
			<data auto_broadcast="numpy"/>
			<input>
				<port id="0">
					<dim>1</dim>
					<dim>64</dim>
					<dim>64</dim>
					<dim>32</dim>
				</port>
				<port id="1">
					<dim>1</dim>
					<dim>64</dim>
					<dim>1</dim>
					<dim>1</dim>
				</port>
			</input>
			<output>
				<port id="2" precision="FP16">
					<dim>1</dim>
					<dim>64</dim>
					<dim>64</dim>
					<dim>32</dim>
				</port>
			</output>
		</layer>
		<layer id="372" name="42274231_const" type="Const" version="opset1">
			<data element_type="f16" offset="53582" shape="1,64,1,1" size="128"/>
			<output>
				<port id="0" precision="FP16">
					<dim>1</dim>
					<dim>64</dim>
					<dim>1</dim>
					<dim>1</dim>
				</port>
			</output>
		</layer>
		<layer id="373" name="42284232_const" type="Const" version="opset1">
			<data element_type="f16" offset="53710" shape="1,64,1,1" size="128"/>
			<output>
				<port id="0" precision="FP16">
					<dim>1</dim>
					<dim>64</dim>
					<dim>1</dim>
					<dim>1</dim>
				</port>
			</output>
		</layer>
		<layer id="374" name="42294233_const" type="Const" version="opset1">
			<data element_type="f16" offset="53582" shape="1,64,1,1" size="128"/>
			<output>
				<port id="0" precision="FP16">
					<dim>1</dim>
					<dim>64</dim>
					<dim>1</dim>
					<dim>1</dim>
				</port>
			</output>
		</layer>
		<layer id="375" name="42304234_const" type="Const" version="opset1">
			<data element_type="f16" offset="53710" shape="1,64,1,1" size="128"/>
			<output>
				<port id="0" precision="FP16">
					<dim>1</dim>
					<dim>64</dim>
					<dim>1</dim>
					<dim>1</dim>
				</port>
			</output>
		</layer>
		<layer id="376" name="596/fq_input_0" type="FakeQuantize" version="opset1">
			<data auto_broadcast="numpy" levels="256"/>
			<input>
				<port id="0">
					<dim>1</dim>
					<dim>64</dim>
					<dim>64</dim>
					<dim>32</dim>
				</port>
				<port id="1">
					<dim>1</dim>
					<dim>64</dim>
					<dim>1</dim>
					<dim>1</dim>
				</port>
				<port id="2">
					<dim>1</dim>
					<dim>64</dim>
					<dim>1</dim>
					<dim>1</dim>
				</port>
				<port id="3">
					<dim>1</dim>
					<dim>64</dim>
					<dim>1</dim>
					<dim>1</dim>
				</port>
				<port id="4">
					<dim>1</dim>
					<dim>64</dim>
					<dim>1</dim>
					<dim>1</dim>
				</port>
			</input>
			<output>
				<port id="5" precision="FP16">
					<dim>1</dim>
					<dim>64</dim>
					<dim>64</dim>
					<dim>32</dim>
				</port>
			</output>
		</layer>
		<layer id="377" name="4215942162_const134715369/quantized20571_const" type="Const" version="opset1">
			<data element_type="i8" offset="53838" shape="64,1,3,3" size="576"/>
			<output>
				<port id="0" precision="I8">
					<dim>64</dim>
					<dim>1</dim>
					<dim>3</dim>
					<dim>3</dim>
				</port>
			</output>
		</layer>
		<layer id="378" name="4215942162_const134715369/quantized/to_f16" type="Convert" version="opset1">
			<data destination_type="f16"/>
			<input>
				<port id="0">
					<dim>64</dim>
					<dim>1</dim>
					<dim>3</dim>
					<dim>3</dim>
				</port>
			</input>
			<output>
				<port id="1" precision="FP16">
					<dim>64</dim>
					<dim>1</dim>
					<dim>3</dim>
					<dim>3</dim>
				</port>
			</output>
		</layer>
		<layer id="379" name="596/fq_weights_1/zero_point20584_const" type="Const" version="opset1">
			<data element_type="f16" offset="54414" shape="64,1,1,1" size="128"/>
			<output>
				<port id="0" precision="FP16">
					<dim>64</dim>
					<dim>1</dim>
					<dim>1</dim>
					<dim>1</dim>
				</port>
			</output>
		</layer>
		<layer id="380" name="596/fq_weights_1/minus_zp" type="Subtract" version="opset1">
			<data auto_broadcast="numpy"/>
			<input>
				<port id="0">
					<dim>64</dim>
					<dim>1</dim>
					<dim>3</dim>
					<dim>3</dim>
				</port>
				<port id="1">
					<dim>64</dim>
					<dim>1</dim>
					<dim>1</dim>
					<dim>1</dim>
				</port>
			</input>
			<output>
				<port id="2" precision="FP16">
					<dim>64</dim>
					<dim>1</dim>
					<dim>3</dim>
					<dim>3</dim>
				</port>
			</output>
		</layer>
		<layer id="381" name="596/fq_weights_1/scale20579_const" type="Const" version="opset1">
			<data element_type="f16" offset="54542" shape="64,1,1,1" size="128"/>
			<output>
				<port id="0" precision="FP16">
					<dim>64</dim>
					<dim>1</dim>
					<dim>1</dim>
					<dim>1</dim>
				</port>
			</output>
		</layer>
		<layer id="382" name="596/fq_weights_1/mulpiply_by_scale" type="Multiply" version="opset1">
			<data auto_broadcast="numpy"/>
			<input>
				<port id="0">
					<dim>64</dim>
					<dim>1</dim>
					<dim>3</dim>
					<dim>3</dim>
				</port>
				<port id="1">
					<dim>64</dim>
					<dim>1</dim>
					<dim>1</dim>
					<dim>1</dim>
				</port>
			</input>
			<output>
				<port id="2" precision="FP16">
					<dim>64</dim>
					<dim>1</dim>
					<dim>3</dim>
					<dim>3</dim>
				</port>
			</output>
		</layer>
		<layer id="383" name="24504/value24506_const" type="Const" version="opset1">
			<data element_type="i64" offset="20034" shape="5" size="40"/>
			<output>
				<port id="0" precision="I64">
					<dim>5</dim>
				</port>
			</output>
		</layer>
		<layer id="384" name="24504" type="Reshape" version="opset1">
			<data special_zero="true"/>
			<input>
				<port id="0">
					<dim>64</dim>
					<dim>1</dim>
					<dim>3</dim>
					<dim>3</dim>
				</port>
				<port id="1">
					<dim>5</dim>
				</port>
			</input>
			<output>
				<port id="2" precision="FP16">
					<dim>64</dim>
					<dim>1</dim>
					<dim>1</dim>
					<dim>3</dim>
					<dim>3</dim>
				</port>
			</output>
		</layer>
		<layer id="385" name="596" type="GroupConvolution" version="opset1">
			<data auto_pad="explicit" dilations="1,1" pads_begin="1,1" pads_end="1,1" strides="1,1"/>
			<input>
				<port id="0">
					<dim>1</dim>
					<dim>64</dim>
					<dim>64</dim>
					<dim>32</dim>
				</port>
				<port id="1">
					<dim>64</dim>
					<dim>1</dim>
					<dim>1</dim>
					<dim>3</dim>
					<dim>3</dim>
				</port>
			</input>
			<output>
				<port id="2" precision="FP16">
					<dim>1</dim>
					<dim>64</dim>
					<dim>64</dim>
					<dim>32</dim>
				</port>
			</output>
		</layer>
		<layer id="386" name="data_add_217092171422714/EltwiseUnsqueeze23202_const1349_const" type="Const" version="opset1">
			<data element_type="f16" offset="54670" shape="1,64,1,1" size="128"/>
			<output>
				<port id="0" precision="FP16">
					<dim>1</dim>
					<dim>64</dim>
					<dim>1</dim>
					<dim>1</dim>
				</port>
			</output>
		</layer>
		<layer id="387" name="597/variance/Fused_Add_" type="Add" version="opset1">
			<data auto_broadcast="numpy"/>
			<input>
				<port id="0">
					<dim>1</dim>
					<dim>64</dim>
					<dim>64</dim>
					<dim>32</dim>
				</port>
				<port id="1">
					<dim>1</dim>
					<dim>64</dim>
					<dim>1</dim>
					<dim>1</dim>
				</port>
			</input>
			<output>
				<port id="2" names="597" precision="FP16">
					<dim>1</dim>
					<dim>64</dim>
					<dim>64</dim>
					<dim>32</dim>
				</port>
			</output>
		</layer>
		<layer id="388" name="598" type="ReLU" version="opset1">
			<input>
				<port id="0">
					<dim>1</dim>
					<dim>64</dim>
					<dim>64</dim>
					<dim>32</dim>
				</port>
			</input>
			<output>
				<port id="1" names="598" precision="FP16">
					<dim>1</dim>
					<dim>64</dim>
					<dim>64</dim>
					<dim>32</dim>
				</port>
			</output>
		</layer>
		<layer id="389" name="47874791_const" type="Const" version="opset1">
			<data element_type="f16" offset="10108" shape="" size="2"/>
			<output>
				<port id="0" precision="FP16"/>
			</output>
		</layer>
		<layer id="390" name="47884792_const" type="Const" version="opset1">
			<data element_type="f16" offset="54798" shape="" size="2"/>
			<output>
				<port id="0" precision="FP16"/>
			</output>
		</layer>
		<layer id="391" name="47894793_const" type="Const" version="opset1">
			<data element_type="f16" offset="10108" shape="" size="2"/>
			<output>
				<port id="0" precision="FP16"/>
			</output>
		</layer>
		<layer id="392" name="47904794_const" type="Const" version="opset1">
			<data element_type="f16" offset="54798" shape="" size="2"/>
			<output>
				<port id="0" precision="FP16"/>
			</output>
		</layer>
		<layer id="393" name="599/fq_input_0" type="FakeQuantize" version="opset1">
			<data auto_broadcast="numpy" levels="256"/>
			<input>
				<port id="0">
					<dim>1</dim>
					<dim>64</dim>
					<dim>64</dim>
					<dim>32</dim>
				</port>
				<port id="1"/>
				<port id="2"/>
				<port id="3"/>
				<port id="4"/>
			</input>
			<output>
				<port id="5" precision="FP16">
					<dim>1</dim>
					<dim>64</dim>
					<dim>64</dim>
					<dim>32</dim>
				</port>
			</output>
		</layer>
		<layer id="394" name="conv2.0.conv2d.1.conv1.weight/quantized19323_const" type="Const" version="opset1">
			<data element_type="i8" offset="54800" shape="64,64,1,1" size="4096"/>
			<output>
				<port id="0" precision="I8">
					<dim>64</dim>
					<dim>64</dim>
					<dim>1</dim>
					<dim>1</dim>
				</port>
			</output>
		</layer>
		<layer id="395" name="conv2.0.conv2d.1.conv1.weight/quantized/to_f16" type="Convert" version="opset1">
			<data destination_type="f16"/>
			<input>
				<port id="0">
					<dim>64</dim>
					<dim>64</dim>
					<dim>1</dim>
					<dim>1</dim>
				</port>
			</input>
			<output>
				<port id="1" precision="FP16">
					<dim>64</dim>
					<dim>64</dim>
					<dim>1</dim>
					<dim>1</dim>
				</port>
			</output>
		</layer>
		<layer id="396" name="599/fq_weights_1/zero_point19336_const" type="Const" version="opset1">
			<data element_type="f16" offset="58896" shape="64,1,1,1" size="128"/>
			<output>
				<port id="0" precision="FP16">
					<dim>64</dim>
					<dim>1</dim>
					<dim>1</dim>
					<dim>1</dim>
				</port>
			</output>
		</layer>
		<layer id="397" name="599/fq_weights_1/minus_zp" type="Subtract" version="opset1">
			<data auto_broadcast="numpy"/>
			<input>
				<port id="0">
					<dim>64</dim>
					<dim>64</dim>
					<dim>1</dim>
					<dim>1</dim>
				</port>
				<port id="1">
					<dim>64</dim>
					<dim>1</dim>
					<dim>1</dim>
					<dim>1</dim>
				</port>
			</input>
			<output>
				<port id="2" precision="FP16">
					<dim>64</dim>
					<dim>64</dim>
					<dim>1</dim>
					<dim>1</dim>
				</port>
			</output>
		</layer>
		<layer id="398" name="599/fq_weights_1/scale19331_const" type="Const" version="opset1">
			<data element_type="f16" offset="59024" shape="64,1,1,1" size="128"/>
			<output>
				<port id="0" precision="FP16">
					<dim>64</dim>
					<dim>1</dim>
					<dim>1</dim>
					<dim>1</dim>
				</port>
			</output>
		</layer>
		<layer id="399" name="599/fq_weights_1/mulpiply_by_scale" type="Multiply" version="opset1">
			<data auto_broadcast="numpy"/>
			<input>
				<port id="0">
					<dim>64</dim>
					<dim>64</dim>
					<dim>1</dim>
					<dim>1</dim>
				</port>
				<port id="1">
					<dim>64</dim>
					<dim>1</dim>
					<dim>1</dim>
					<dim>1</dim>
				</port>
			</input>
			<output>
				<port id="2" precision="FP16">
					<dim>64</dim>
					<dim>64</dim>
					<dim>1</dim>
					<dim>1</dim>
				</port>
			</output>
		</layer>
		<layer id="400" name="599" type="Convolution" version="opset1">
			<data auto_pad="explicit" dilations="1,1" pads_begin="0,0" pads_end="0,0" strides="1,1"/>
			<input>
				<port id="0">
					<dim>1</dim>
					<dim>64</dim>
					<dim>64</dim>
					<dim>32</dim>
				</port>
				<port id="1">
					<dim>64</dim>
					<dim>64</dim>
					<dim>1</dim>
					<dim>1</dim>
				</port>
			</input>
			<output>
				<port id="2" names="599" precision="FP16">
					<dim>1</dim>
					<dim>64</dim>
					<dim>64</dim>
					<dim>32</dim>
				</port>
			</output>
		</layer>
		<layer id="401" name="29002902_const" type="Const" version="opset1">
			<data element_type="f16" offset="9720" shape="1,64,1,1" size="128"/>
			<output>
				<port id="0" precision="FP16">
					<dim>1</dim>
					<dim>64</dim>
					<dim>1</dim>
					<dim>1</dim>
				</port>
			</output>
		</layer>
		<layer id="402" name="599/add_" type="Add" version="opset1">
			<data auto_broadcast="numpy"/>
			<input>
				<port id="0">
					<dim>1</dim>
					<dim>64</dim>
					<dim>64</dim>
					<dim>32</dim>
				</port>
				<port id="1">
					<dim>1</dim>
					<dim>64</dim>
					<dim>1</dim>
					<dim>1</dim>
				</port>
			</input>
			<output>
				<port id="2" precision="FP16">
					<dim>1</dim>
					<dim>64</dim>
					<dim>64</dim>
					<dim>32</dim>
				</port>
			</output>
		</layer>
		<layer id="403" name="69176921_const" type="Const" version="opset1">
			<data element_type="f16" offset="59152" shape="1,64,1,1" size="128"/>
			<output>
				<port id="0" precision="FP16">
					<dim>1</dim>
					<dim>64</dim>
					<dim>1</dim>
					<dim>1</dim>
				</port>
			</output>
		</layer>
		<layer id="404" name="69186922_const" type="Const" version="opset1">
			<data element_type="f16" offset="59280" shape="1,64,1,1" size="128"/>
			<output>
				<port id="0" precision="FP16">
					<dim>1</dim>
					<dim>64</dim>
					<dim>1</dim>
					<dim>1</dim>
				</port>
			</output>
		</layer>
		<layer id="405" name="69196923_const" type="Const" version="opset1">
			<data element_type="f16" offset="59152" shape="1,64,1,1" size="128"/>
			<output>
				<port id="0" precision="FP16">
					<dim>1</dim>
					<dim>64</dim>
					<dim>1</dim>
					<dim>1</dim>
				</port>
			</output>
		</layer>
		<layer id="406" name="69206924_const" type="Const" version="opset1">
			<data element_type="f16" offset="59280" shape="1,64,1,1" size="128"/>
			<output>
				<port id="0" precision="FP16">
					<dim>1</dim>
					<dim>64</dim>
					<dim>1</dim>
					<dim>1</dim>
				</port>
			</output>
		</layer>
		<layer id="407" name="600/fq_input_0" type="FakeQuantize" version="opset1">
			<data auto_broadcast="numpy" levels="256"/>
			<input>
				<port id="0">
					<dim>1</dim>
					<dim>64</dim>
					<dim>64</dim>
					<dim>32</dim>
				</port>
				<port id="1">
					<dim>1</dim>
					<dim>64</dim>
					<dim>1</dim>
					<dim>1</dim>
				</port>
				<port id="2">
					<dim>1</dim>
					<dim>64</dim>
					<dim>1</dim>
					<dim>1</dim>
				</port>
				<port id="3">
					<dim>1</dim>
					<dim>64</dim>
					<dim>1</dim>
					<dim>1</dim>
				</port>
				<port id="4">
					<dim>1</dim>
					<dim>64</dim>
					<dim>1</dim>
					<dim>1</dim>
				</port>
			</input>
			<output>
				<port id="5" precision="FP16">
					<dim>1</dim>
					<dim>64</dim>
					<dim>64</dim>
					<dim>32</dim>
				</port>
			</output>
		</layer>
		<layer id="408" name="4216342166_const135415372/quantized18699_const" type="Const" version="opset1">
			<data element_type="i8" offset="59408" shape="64,1,3,3" size="576"/>
			<output>
				<port id="0" precision="I8">
					<dim>64</dim>
					<dim>1</dim>
					<dim>3</dim>
					<dim>3</dim>
				</port>
			</output>
		</layer>
		<layer id="409" name="4216342166_const135415372/quantized/to_f16" type="Convert" version="opset1">
			<data destination_type="f16"/>
…
		<edge from-layer="2722" from-port="0" to-layer="2723" to-port="1"/>
		<edge from-layer="2723" from-port="2" to-layer="2724" to-port="0"/>
		<edge from-layer="2724" from-port="1" to-layer="2729" to-port="0"/>
		<edge from-layer="2725" from-port="0" to-layer="2729" to-port="1"/>
		<edge from-layer="2726" from-port="0" to-layer="2729" to-port="2"/>
		<edge from-layer="2727" from-port="0" to-layer="2729" to-port="3"/>
		<edge from-layer="2728" from-port="0" to-layer="2729" to-port="4"/>
		<edge from-layer="2730" from-port="0" to-layer="2731" to-port="0"/>
		<edge from-layer="2731" from-port="1" to-layer="2733" to-port="0"/>
		<edge from-layer="2732" from-port="0" to-layer="2733" to-port="1"/>
		<edge from-layer="2733" from-port="2" to-layer="2735" to-port="0"/>
		<edge from-layer="2734" from-port="0" to-layer="2735" to-port="1"/>
		<edge from-layer="2729" from-port="5" to-layer="2736" to-port="0"/>
		<edge from-layer="2735" from-port="2" to-layer="2736" to-port="1"/>
		<edge from-layer="2736" from-port="2" to-layer="2738" to-port="0"/>
		<edge from-layer="2737" from-port="0" to-layer="2738" to-port="1"/>
		<edge from-layer="2738" from-port="2" to-layer="2743" to-port="0"/>
		<edge from-layer="2739" from-port="0" to-layer="2743" to-port="1"/>
		<edge from-layer="2740" from-port="0" to-layer="2743" to-port="2"/>
		<edge from-layer="2741" from-port="0" to-layer="2743" to-port="3"/>
		<edge from-layer="2742" from-port="0" to-layer="2743" to-port="4"/>
		<edge from-layer="2744" from-port="0" to-layer="2745" to-port="0"/>
		<edge from-layer="2745" from-port="1" to-layer="2747" to-port="0"/>
		<edge from-layer="2746" from-port="0" to-layer="2747" to-port="1"/>
		<edge from-layer="2747" from-port="2" to-layer="2749" to-port="0"/>
		<edge from-layer="2748" from-port="0" to-layer="2749" to-port="1"/>
		<edge from-layer="2749" from-port="2" to-layer="2751" to-port="0"/>
		<edge from-layer="2750" from-port="0" to-layer="2751" to-port="1"/>
		<edge from-layer="2743" from-port="5" to-layer="2752" to-port="0"/>
		<edge from-layer="2751" from-port="2" to-layer="2752" to-port="1"/>
		<edge from-layer="2752" from-port="2" to-layer="2754" to-port="0"/>
		<edge from-layer="2753" from-port="0" to-layer="2754" to-port="1"/>
		<edge from-layer="2754" from-port="2" to-layer="2755" to-port="0"/>
		<edge from-layer="2755" from-port="1" to-layer="2760" to-port="0"/>
		<edge from-layer="2756" from-port="0" to-layer="2760" to-port="1"/>
		<edge from-layer="2757" from-port="0" to-layer="2760" to-port="2"/>
		<edge from-layer="2758" from-port="0" to-layer="2760" to-port="3"/>
		<edge from-layer="2759" from-port="0" to-layer="2760" to-port="4"/>
		<edge from-layer="2755" from-port="1" to-layer="2762" to-port="0"/>
		<edge from-layer="2762" from-port="1" to-layer="2763" to-port="0"/>
		<edge from-layer="2763" from-port="1" to-layer="2765" to-port="0"/>
		<edge from-layer="2764" from-port="0" to-layer="2765" to-port="1"/>
		<edge from-layer="2761" from-port="0" to-layer="2767" to-port="0"/>
		<edge from-layer="2765" from-port="2" to-layer="2767" to-port="1"/>
		<edge from-layer="2766" from-port="0" to-layer="2767" to-port="2"/>
		<edge from-layer="2760" from-port="5" to-layer="2768" to-port="0"/>
		<edge from-layer="2767" from-port="3" to-layer="2768" to-port="1"/>
		<edge from-layer="2768" from-port="2" to-layer="2773" to-port="0"/>
		<edge from-layer="2769" from-port="0" to-layer="2773" to-port="1"/>
		<edge from-layer="2770" from-port="0" to-layer="2773" to-port="2"/>
		<edge from-layer="2771" from-port="0" to-layer="2773" to-port="3"/>
		<edge from-layer="2772" from-port="0" to-layer="2773" to-port="4"/>
		<edge from-layer="2773" from-port="5" to-layer="2775" to-port="0"/>
		<edge from-layer="2774" from-port="0" to-layer="2775" to-port="1"/>
		<edge from-layer="2775" from-port="2" to-layer="2777" to-port="0"/>
		<edge from-layer="2777" from-port="1" to-layer="2778" to-port="0"/>
		<edge from-layer="2778" from-port="1" to-layer="2780" to-port="0"/>
		<edge from-layer="2779" from-port="0" to-layer="2780" to-port="1"/>
		<edge from-layer="2776" from-port="0" to-layer="2782" to-port="0"/>
		<edge from-layer="2780" from-port="2" to-layer="2782" to-port="1"/>
		<edge from-layer="2781" from-port="0" to-layer="2782" to-port="2"/>
		<edge from-layer="2775" from-port="2" to-layer="2783" to-port="0"/>
		<edge from-layer="2782" from-port="3" to-layer="2783" to-port="1"/>
		<edge from-layer="2783" from-port="2" to-layer="2785" to-port="0"/>
		<edge from-layer="2784" from-port="0" to-layer="2785" to-port="1"/>
		<edge from-layer="2785" from-port="2" to-layer="2787" to-port="0"/>
		<edge from-layer="2786" from-port="0" to-layer="2787" to-port="1"/>
		<edge from-layer="2787" from-port="2" to-layer="2792" to-port="0"/>
		<edge from-layer="2788" from-port="0" to-layer="2792" to-port="1"/>
		<edge from-layer="2789" from-port="0" to-layer="2792" to-port="2"/>
		<edge from-layer="2790" from-port="0" to-layer="2792" to-port="3"/>
		<edge from-layer="2791" from-port="0" to-layer="2792" to-port="4"/>
		<edge from-layer="2768" from-port="2" to-layer="2793" to-port="0"/>
		<edge from-layer="2792" from-port="5" to-layer="2794" to-port="0"/>
		<edge from-layer="2793" from-port="1" to-layer="2794" to-port="1"/>
		<edge from-layer="2794" from-port="2" to-layer="2796" to-port="0"/>
		<edge from-layer="2795" from-port="0" to-layer="2796" to-port="1"/>
		<edge from-layer="2796" from-port="2" to-layer="2798" to-port="0"/>
		<edge from-layer="2797" from-port="0" to-layer="2798" to-port="1"/>
		<edge from-layer="2798" from-port="2" to-layer="2799" to-port="0"/>
		<edge from-layer="2799" from-port="1" to-layer="2804" to-port="0"/>
		<edge from-layer="2800" from-port="0" to-layer="2804" to-port="1"/>
		<edge from-layer="2801" from-port="0" to-layer="2804" to-port="2"/>
		<edge from-layer="2802" from-port="0" to-layer="2804" to-port="3"/>
		<edge from-layer="2803" from-port="0" to-layer="2804" to-port="4"/>
		<edge from-layer="2760" from-port="5" to-layer="2805" to-port="0"/>
		<edge from-layer="2804" from-port="5" to-layer="2805" to-port="1"/>
		<edge from-layer="2805" from-port="2" to-layer="2810" to-port="0"/>
		<edge from-layer="2806" from-port="0" to-layer="2810" to-port="1"/>
		<edge from-layer="2807" from-port="0" to-layer="2810" to-port="2"/>
		<edge from-layer="2808" from-port="0" to-layer="2810" to-port="3"/>
		<edge from-layer="2809" from-port="0" to-layer="2810" to-port="4"/>
		<edge from-layer="2811" from-port="0" to-layer="2812" to-port="0"/>
		<edge from-layer="2812" from-port="1" to-layer="2814" to-port="0"/>
		<edge from-layer="2813" from-port="0" to-layer="2814" to-port="1"/>
		<edge from-layer="2814" from-port="2" to-layer="2816" to-port="0"/>
		<edge from-layer="2815" from-port="0" to-layer="2816" to-port="1"/>
		<edge from-layer="2729" from-port="5" to-layer="2817" to-port="0"/>
		<edge from-layer="2816" from-port="2" to-layer="2817" to-port="1"/>
		<edge from-layer="2817" from-port="2" to-layer="2819" to-port="0"/>
		<edge from-layer="2818" from-port="0" to-layer="2819" to-port="1"/>
		<edge from-layer="2819" from-port="2" to-layer="2824" to-port="0"/>
		<edge from-layer="2820" from-port="0" to-layer="2824" to-port="1"/>
		<edge from-layer="2821" from-port="0" to-layer="2824" to-port="2"/>
		<edge from-layer="2822" from-port="0" to-layer="2824" to-port="3"/>
		<edge from-layer="2823" from-port="0" to-layer="2824" to-port="4"/>
		<edge from-layer="2825" from-port="0" to-layer="2826" to-port="0"/>
		<edge from-layer="2826" from-port="1" to-layer="2828" to-port="0"/>
		<edge from-layer="2827" from-port="0" to-layer="2828" to-port="1"/>
		<edge from-layer="2828" from-port="2" to-layer="2830" to-port="0"/>
		<edge from-layer="2829" from-port="0" to-layer="2830" to-port="1"/>
		<edge from-layer="2830" from-port="2" to-layer="2832" to-port="0"/>
		<edge from-layer="2831" from-port="0" to-layer="2832" to-port="1"/>
		<edge from-layer="2824" from-port="5" to-layer="2833" to-port="0"/>
		<edge from-layer="2832" from-port="2" to-layer="2833" to-port="1"/>
		<edge from-layer="2833" from-port="2" to-layer="2835" to-port="0"/>
		<edge from-layer="2834" from-port="0" to-layer="2835" to-port="1"/>
		<edge from-layer="2835" from-port="2" to-layer="2836" to-port="0"/>
		<edge from-layer="2836" from-port="1" to-layer="2841" to-port="0"/>
		<edge from-layer="2837" from-port="0" to-layer="2841" to-port="1"/>
		<edge from-layer="2838" from-port="0" to-layer="2841" to-port="2"/>
		<edge from-layer="2839" from-port="0" to-layer="2841" to-port="3"/>
		<edge from-layer="2840" from-port="0" to-layer="2841" to-port="4"/>
		<edge from-layer="2842" from-port="0" to-layer="2843" to-port="0"/>
		<edge from-layer="2843" from-port="1" to-layer="2845" to-port="0"/>
		<edge from-layer="2844" from-port="0" to-layer="2845" to-port="1"/>
		<edge from-layer="2845" from-port="2" to-layer="2847" to-port="0"/>
		<edge from-layer="2846" from-port="0" to-layer="2847" to-port="1"/>
		<edge from-layer="2841" from-port="5" to-layer="2848" to-port="0"/>
		<edge from-layer="2847" from-port="2" to-layer="2848" to-port="1"/>
		<edge from-layer="2848" from-port="2" to-layer="2850" to-port="0"/>
		<edge from-layer="2849" from-port="0" to-layer="2850" to-port="1"/>
		<edge from-layer="2850" from-port="2" to-layer="2855" to-port="0"/>
		<edge from-layer="2851" from-port="0" to-layer="2855" to-port="1"/>
		<edge from-layer="2852" from-port="0" to-layer="2855" to-port="2"/>
		<edge from-layer="2853" from-port="0" to-layer="2855" to-port="3"/>
		<edge from-layer="2854" from-port="0" to-layer="2855" to-port="4"/>
		<edge from-layer="2856" from-port="0" to-layer="2857" to-port="0"/>
		<edge from-layer="2857" from-port="1" to-layer="2859" to-port="0"/>
		<edge from-layer="2858" from-port="0" to-layer="2859" to-port="1"/>
		<edge from-layer="2859" from-port="2" to-layer="2861" to-port="0"/>
		<edge from-layer="2860" from-port="0" to-layer="2861" to-port="1"/>
		<edge from-layer="2861" from-port="2" to-layer="2863" to-port="0"/>
		<edge from-layer="2862" from-port="0" to-layer="2863" to-port="1"/>
		<edge from-layer="2855" from-port="5" to-layer="2864" to-port="0"/>
		<edge from-layer="2863" from-port="2" to-layer="2864" to-port="1"/>
		<edge from-layer="2864" from-port="2" to-layer="2866" to-port="0"/>
		<edge from-layer="2865" from-port="0" to-layer="2866" to-port="1"/>
		<edge from-layer="2866" from-port="2" to-layer="2867" to-port="0"/>
		<edge from-layer="2867" from-port="1" to-layer="2872" to-port="0"/>
		<edge from-layer="2868" from-port="0" to-layer="2872" to-port="1"/>
		<edge from-layer="2869" from-port="0" to-layer="2872" to-port="2"/>
		<edge from-layer="2870" from-port="0" to-layer="2872" to-port="3"/>
		<edge from-layer="2871" from-port="0" to-layer="2872" to-port="4"/>
		<edge from-layer="2867" from-port="1" to-layer="2874" to-port="0"/>
		<edge from-layer="2874" from-port="1" to-layer="2875" to-port="0"/>
		<edge from-layer="2875" from-port="1" to-layer="2877" to-port="0"/>
		<edge from-layer="2876" from-port="0" to-layer="2877" to-port="1"/>
		<edge from-layer="2873" from-port="0" to-layer="2879" to-port="0"/>
		<edge from-layer="2877" from-port="2" to-layer="2879" to-port="1"/>
		<edge from-layer="2878" from-port="0" to-layer="2879" to-port="2"/>
		<edge from-layer="2872" from-port="5" to-layer="2880" to-port="0"/>
		<edge from-layer="2879" from-port="3" to-layer="2880" to-port="1"/>
		<edge from-layer="2880" from-port="2" to-layer="2885" to-port="0"/>
		<edge from-layer="2881" from-port="0" to-layer="2885" to-port="1"/>
		<edge from-layer="2882" from-port="0" to-layer="2885" to-port="2"/>
		<edge from-layer="2883" from-port="0" to-layer="2885" to-port="3"/>
		<edge from-layer="2884" from-port="0" to-layer="2885" to-port="4"/>
		<edge from-layer="2885" from-port="5" to-layer="2887" to-port="0"/>
		<edge from-layer="2886" from-port="0" to-layer="2887" to-port="1"/>
		<edge from-layer="2887" from-port="2" to-layer="2889" to-port="0"/>
		<edge from-layer="2889" from-port="1" to-layer="2890" to-port="0"/>
		<edge from-layer="2890" from-port="1" to-layer="2892" to-port="0"/>
		<edge from-layer="2891" from-port="0" to-layer="2892" to-port="1"/>
		<edge from-layer="2888" from-port="0" to-layer="2894" to-port="0"/>
		<edge from-layer="2892" from-port="2" to-layer="2894" to-port="1"/>
		<edge from-layer="2893" from-port="0" to-layer="2894" to-port="2"/>
		<edge from-layer="2887" from-port="2" to-layer="2895" to-port="0"/>
		<edge from-layer="2894" from-port="3" to-layer="2895" to-port="1"/>
		<edge from-layer="2895" from-port="2" to-layer="2897" to-port="0"/>
		<edge from-layer="2896" from-port="0" to-layer="2897" to-port="1"/>
		<edge from-layer="2897" from-port="2" to-layer="2899" to-port="0"/>
		<edge from-layer="2898" from-port="0" to-layer="2899" to-port="1"/>
		<edge from-layer="2899" from-port="2" to-layer="2904" to-port="0"/>
		<edge from-layer="2900" from-port="0" to-layer="2904" to-port="1"/>
		<edge from-layer="2901" from-port="0" to-layer="2904" to-port="2"/>
		<edge from-layer="2902" from-port="0" to-layer="2904" to-port="3"/>
		<edge from-layer="2903" from-port="0" to-layer="2904" to-port="4"/>
		<edge from-layer="2880" from-port="2" to-layer="2905" to-port="0"/>
		<edge from-layer="2904" from-port="5" to-layer="2906" to-port="0"/>
		<edge from-layer="2905" from-port="1" to-layer="2906" to-port="1"/>
		<edge from-layer="2906" from-port="2" to-layer="2908" to-port="0"/>
		<edge from-layer="2907" from-port="0" to-layer="2908" to-port="1"/>
		<edge from-layer="2908" from-port="2" to-layer="2910" to-port="0"/>
		<edge from-layer="2909" from-port="0" to-layer="2910" to-port="1"/>
		<edge from-layer="2910" from-port="2" to-layer="2911" to-port="0"/>
		<edge from-layer="2911" from-port="1" to-layer="2916" to-port="0"/>
		<edge from-layer="2912" from-port="0" to-layer="2916" to-port="1"/>
		<edge from-layer="2913" from-port="0" to-layer="2916" to-port="2"/>
		<edge from-layer="2914" from-port="0" to-layer="2916" to-port="3"/>
		<edge from-layer="2915" from-port="0" to-layer="2916" to-port="4"/>
		<edge from-layer="2872" from-port="5" to-layer="2917" to-port="0"/>
		<edge from-layer="2916" from-port="5" to-layer="2917" to-port="1"/>
		<edge from-layer="2917" from-port="2" to-layer="2922" to-port="0"/>
		<edge from-layer="2918" from-port="0" to-layer="2922" to-port="1"/>
		<edge from-layer="2919" from-port="0" to-layer="2922" to-port="2"/>
		<edge from-layer="2920" from-port="0" to-layer="2922" to-port="3"/>
		<edge from-layer="2921" from-port="0" to-layer="2922" to-port="4"/>
		<edge from-layer="2810" from-port="5" to-layer="2923" to-port="0"/>
		<edge from-layer="2922" from-port="5" to-layer="2923" to-port="1"/>
		<edge from-layer="2923" from-port="2" to-layer="2928" to-port="0"/>
		<edge from-layer="2924" from-port="0" to-layer="2928" to-port="1"/>
		<edge from-layer="2925" from-port="0" to-layer="2928" to-port="2"/>
		<edge from-layer="2926" from-port="0" to-layer="2928" to-port="3"/>
		<edge from-layer="2927" from-port="0" to-layer="2928" to-port="4"/>
		<edge from-layer="2929" from-port="0" to-layer="2930" to-port="0"/>
		<edge from-layer="2930" from-port="1" to-layer="2932" to-port="0"/>
		<edge from-layer="2931" from-port="0" to-layer="2932" to-port="1"/>
		<edge from-layer="2932" from-port="2" to-layer="2934" to-port="0"/>
		<edge from-layer="2933" from-port="0" to-layer="2934" to-port="1"/>
		<edge from-layer="2729" from-port="5" to-layer="2935" to-port="0"/>
		<edge from-layer="2934" from-port="2" to-layer="2935" to-port="1"/>
		<edge from-layer="2935" from-port="2" to-layer="2937" to-port="0"/>
		<edge from-layer="2936" from-port="0" to-layer="2937" to-port="1"/>
		<edge from-layer="2937" from-port="2" to-layer="2942" to-port="0"/>
		<edge from-layer="2938" from-port="0" to-layer="2942" to-port="1"/>
		<edge from-layer="2939" from-port="0" to-layer="2942" to-port="2"/>
		<edge from-layer="2940" from-port="0" to-layer="2942" to-port="3"/>
		<edge from-layer="2941" from-port="0" to-layer="2942" to-port="4"/>
		<edge from-layer="2943" from-port="0" to-layer="2944" to-port="0"/>
		<edge from-layer="2944" from-port="1" to-layer="2946" to-port="0"/>
		<edge from-layer="2945" from-port="0" to-layer="2946" to-port="1"/>
		<edge from-layer="2946" from-port="2" to-layer="2948" to-port="0"/>
		<edge from-layer="2947" from-port="0" to-layer="2948" to-port="1"/>
		<edge from-layer="2948" from-port="2" to-layer="2950" to-port="0"/>
		<edge from-layer="2949" from-port="0" to-layer="2950" to-port="1"/>
		<edge from-layer="2942" from-port="5" to-layer="2951" to-port="0"/>
		<edge from-layer="2950" from-port="2" to-layer="2951" to-port="1"/>
		<edge from-layer="2951" from-port="2" to-layer="2953" to-port="0"/>
		<edge from-layer="2952" from-port="0" to-layer="2953" to-port="1"/>
		<edge from-layer="2953" from-port="2" to-layer="2954" to-port="0"/>
		<edge from-layer="2954" from-port="1" to-layer="2959" to-port="0"/>
		<edge from-layer="2955" from-port="0" to-layer="2959" to-port="1"/>
		<edge from-layer="2956" from-port="0" to-layer="2959" to-port="2"/>
		<edge from-layer="2957" from-port="0" to-layer="2959" to-port="3"/>
		<edge from-layer="2958" from-port="0" to-layer="2959" to-port="4"/>
		<edge from-layer="2960" from-port="0" to-layer="2961" to-port="0"/>
		<edge from-layer="2961" from-port="1" to-layer="2963" to-port="0"/>
		<edge from-layer="2962" from-port="0" to-layer="2963" to-port="1"/>
		<edge from-layer="2963" from-port="2" to-layer="2965" to-port="0"/>
		<edge from-layer="2964" from-port="0" to-layer="2965" to-port="1"/>
		<edge from-layer="2959" from-port="5" to-layer="2966" to-port="0"/>
		<edge from-layer="2965" from-port="2" to-layer="2966" to-port="1"/>
		<edge from-layer="2966" from-port="2" to-layer="2968" to-port="0"/>
		<edge from-layer="2967" from-port="0" to-layer="2968" to-port="1"/>
		<edge from-layer="2968" from-port="2" to-layer="2973" to-port="0"/>
		<edge from-layer="2969" from-port="0" to-layer="2973" to-port="1"/>
		<edge from-layer="2970" from-port="0" to-layer="2973" to-port="2"/>
		<edge from-layer="2971" from-port="0" to-layer="2973" to-port="3"/>
		<edge from-layer="2972" from-port="0" to-layer="2973" to-port="4"/>
		<edge from-layer="2974" from-port="0" to-layer="2975" to-port="0"/>
		<edge from-layer="2975" from-port="1" to-layer="2977" to-port="0"/>
		<edge from-layer="2976" from-port="0" to-layer="2977" to-port="1"/>
		<edge from-layer="2977" from-port="2" to-layer="2979" to-port="0"/>
		<edge from-layer="2978" from-port="0" to-layer="2979" to-port="1"/>
		<edge from-layer="2979" from-port="2" to-layer="2981" to-port="0"/>
		<edge from-layer="2980" from-port="0" to-layer="2981" to-port="1"/>
		<edge from-layer="2973" from-port="5" to-layer="2982" to-port="0"/>
		<edge from-layer="2981" from-port="2" to-layer="2982" to-port="1"/>
		<edge from-layer="2982" from-port="2" to-layer="2984" to-port="0"/>
		<edge from-layer="2983" from-port="0" to-layer="2984" to-port="1"/>
		<edge from-layer="2984" from-port="2" to-layer="2985" to-port="0"/>
		<edge from-layer="2985" from-port="1" to-layer="2990" to-port="0"/>
		<edge from-layer="2986" from-port="0" to-layer="2990" to-port="1"/>
		<edge from-layer="2987" from-port="0" to-layer="2990" to-port="2"/>
		<edge from-layer="2988" from-port="0" to-layer="2990" to-port="3"/>
		<edge from-layer="2989" from-port="0" to-layer="2990" to-port="4"/>
		<edge from-layer="2991" from-port="0" to-layer="2992" to-port="0"/>
		<edge from-layer="2992" from-port="1" to-layer="2994" to-port="0"/>
		<edge from-layer="2993" from-port="0" to-layer="2994" to-port="1"/>
		<edge from-layer="2994" from-port="2" to-layer="2996" to-port="0"/>
		<edge from-layer="2995" from-port="0" to-layer="2996" to-port="1"/>
		<edge from-layer="2990" from-port="5" to-layer="2997" to-port="0"/>
		<edge from-layer="2996" from-port="2" to-layer="2997" to-port="1"/>
		<edge from-layer="2997" from-port="2" to-layer="2999" to-port="0"/>
		<edge from-layer="2998" from-port="0" to-layer="2999" to-port="1"/>
		<edge from-layer="2999" from-port="2" to-layer="3004" to-port="0"/>
		<edge from-layer="3000" from-port="0" to-layer="3004" to-port="1"/>
		<edge from-layer="3001" from-port="0" to-layer="3004" to-port="2"/>
		<edge from-layer="3002" from-port="0" to-layer="3004" to-port="3"/>
		<edge from-layer="3003" from-port="0" to-layer="3004" to-port="4"/>
		<edge from-layer="3005" from-port="0" to-layer="3006" to-port="0"/>
		<edge from-layer="3006" from-port="1" to-layer="3008" to-port="0"/>
		<edge from-layer="3007" from-port="0" to-layer="3008" to-port="1"/>
		<edge from-layer="3008" from-port="2" to-layer="3010" to-port="0"/>
		<edge from-layer="3009" from-port="0" to-layer="3010" to-port="1"/>
		<edge from-layer="3010" from-port="2" to-layer="3012" to-port="0"/>
		<edge from-layer="3011" from-port="0" to-layer="3012" to-port="1"/>
		<edge from-layer="3004" from-port="5" to-layer="3013" to-port="0"/>
		<edge from-layer="3012" from-port="2" to-layer="3013" to-port="1"/>
		<edge from-layer="3013" from-port="2" to-layer="3015" to-port="0"/>
		<edge from-layer="3014" from-port="0" to-layer="3015" to-port="1"/>
		<edge from-layer="3015" from-port="2" to-layer="3016" to-port="0"/>
		<edge from-layer="3016" from-port="1" to-layer="3021" to-port="0"/>
		<edge from-layer="3017" from-port="0" to-layer="3021" to-port="1"/>
		<edge from-layer="3018" from-port="0" to-layer="3021" to-port="2"/>
		<edge from-layer="3019" from-port="0" to-layer="3021" to-port="3"/>
		<edge from-layer="3020" from-port="0" to-layer="3021" to-port="4"/>
		<edge from-layer="3016" from-port="1" to-layer="3023" to-port="0"/>
		<edge from-layer="3023" from-port="1" to-layer="3024" to-port="0"/>
		<edge from-layer="3024" from-port="1" to-layer="3026" to-port="0"/>
		<edge from-layer="3025" from-port="0" to-layer="3026" to-port="1"/>
		<edge from-layer="3022" from-port="0" to-layer="3028" to-port="0"/>
		<edge from-layer="3026" from-port="2" to-layer="3028" to-port="1"/>
		<edge from-layer="3027" from-port="0" to-layer="3028" to-port="2"/>
		<edge from-layer="3021" from-port="5" to-layer="3029" to-port="0"/>
		<edge from-layer="3028" from-port="3" to-layer="3029" to-port="1"/>
		<edge from-layer="3029" from-port="2" to-layer="3034" to-port="0"/>
		<edge from-layer="3030" from-port="0" to-layer="3034" to-port="1"/>
		<edge from-layer="3031" from-port="0" to-layer="3034" to-port="2"/>
		<edge from-layer="3032" from-port="0" to-layer="3034" to-port="3"/>
		<edge from-layer="3033" from-port="0" to-layer="3034" to-port="4"/>
		<edge from-layer="3034" from-port="5" to-layer="3036" to-port="0"/>
		<edge from-layer="3035" from-port="0" to-layer="3036" to-port="1"/>
		<edge from-layer="3036" from-port="2" to-layer="3038" to-port="0"/>
		<edge from-layer="3038" from-port="1" to-layer="3039" to-port="0"/>
		<edge from-layer="3039" from-port="1" to-layer="3041" to-port="0"/>
		<edge from-layer="3040" from-port="0" to-layer="3041" to-port="1"/>
		<edge from-layer="3037" from-port="0" to-layer="3043" to-port="0"/>
		<edge from-layer="3041" from-port="2" to-layer="3043" to-port="1"/>
		<edge from-layer="3042" from-port="0" to-layer="3043" to-port="2"/>
		<edge from-layer="3036" from-port="2" to-layer="3044" to-port="0"/>
		<edge from-layer="3043" from-port="3" to-layer="3044" to-port="1"/>
		<edge from-layer="3044" from-port="2" to-layer="3046" to-port="0"/>
		<edge from-layer="3045" from-port="0" to-layer="3046" to-port="1"/>
		<edge from-layer="3046" from-port="2" to-layer="3048" to-port="0"/>
		<edge from-layer="3047" from-port="0" to-layer="3048" to-port="1"/>
		<edge from-layer="3048" from-port="2" to-layer="3053" to-port="0"/>
		<edge from-layer="3049" from-port="0" to-layer="3053" to-port="1"/>
		<edge from-layer="3050" from-port="0" to-layer="3053" to-port="2"/>
		<edge from-layer="3051" from-port="0" to-layer="3053" to-port="3"/>
		<edge from-layer="3052" from-port="0" to-layer="3053" to-port="4"/>
		<edge from-layer="3029" from-port="2" to-layer="3054" to-port="0"/>
		<edge from-layer="3053" from-port="5" to-layer="3055" to-port="0"/>
		<edge from-layer="3054" from-port="1" to-layer="3055" to-port="1"/>
		<edge from-layer="3055" from-port="2" to-layer="3057" to-port="0"/>
		<edge from-layer="3056" from-port="0" to-layer="3057" to-port="1"/>
		<edge from-layer="3057" from-port="2" to-layer="3059" to-port="0"/>
		<edge from-layer="3058" from-port="0" to-layer="3059" to-port="1"/>
		<edge from-layer="3059" from-port="2" to-layer="3060" to-port="0"/>
		<edge from-layer="3060" from-port="1" to-layer="3065" to-port="0"/>
		<edge from-layer="3061" from-port="0" to-layer="3065" to-port="1"/>
		<edge from-layer="3062" from-port="0" to-layer="3065" to-port="2"/>
		<edge from-layer="3063" from-port="0" to-layer="3065" to-port="3"/>
		<edge from-layer="3064" from-port="0" to-layer="3065" to-port="4"/>
		<edge from-layer="3021" from-port="5" to-layer="3066" to-port="0"/>
		<edge from-layer="3065" from-port="5" to-layer="3066" to-port="1"/>
		<edge from-layer="3066" from-port="2" to-layer="3071" to-port="0"/>
		<edge from-layer="3067" from-port="0" to-layer="3071" to-port="1"/>
		<edge from-layer="3068" from-port="0" to-layer="3071" to-port="2"/>
		<edge from-layer="3069" from-port="0" to-layer="3071" to-port="3"/>
		<edge from-layer="3070" from-port="0" to-layer="3071" to-port="4"/>
		<edge from-layer="2928" from-port="5" to-layer="3072" to-port="0"/>
		<edge from-layer="3071" from-port="5" to-layer="3072" to-port="1"/>
		<edge from-layer="3072" from-port="2" to-layer="3077" to-port="0"/>
		<edge from-layer="3073" from-port="0" to-layer="3077" to-port="1"/>
		<edge from-layer="3074" from-port="0" to-layer="3077" to-port="2"/>
		<edge from-layer="3075" from-port="0" to-layer="3077" to-port="3"/>
		<edge from-layer="3076" from-port="0" to-layer="3077" to-port="4"/>
		<edge from-layer="3078" from-port="0" to-layer="3079" to-port="0"/>
		<edge from-layer="3079" from-port="1" to-layer="3081" to-port="0"/>
		<edge from-layer="3080" from-port="0" to-layer="3081" to-port="1"/>
		<edge from-layer="3081" from-port="2" to-layer="3083" to-port="0"/>
		<edge from-layer="3082" from-port="0" to-layer="3083" to-port="1"/>
		<edge from-layer="2729" from-port="5" to-layer="3084" to-port="0"/>
		<edge from-layer="3083" from-port="2" to-layer="3084" to-port="1"/>
		<edge from-layer="3084" from-port="2" to-layer="3086" to-port="0"/>
		<edge from-layer="3085" from-port="0" to-layer="3086" to-port="1"/>
		<edge from-layer="3086" from-port="2" to-layer="3091" to-port="0"/>
		<edge from-layer="3087" from-port="0" to-layer="3091" to-port="1"/>
		<edge from-layer="3088" from-port="0" to-layer="3091" to-port="2"/>
		<edge from-layer="3089" from-port="0" to-layer="3091" to-port="3"/>
		<edge from-layer="3090" from-port="0" to-layer="3091" to-port="4"/>
		<edge from-layer="3092" from-port="0" to-layer="3093" to-port="0"/>
		<edge from-layer="3093" from-port="1" to-layer="3095" to-port="0"/>
		<edge from-layer="3094" from-port="0" to-layer="3095" to-port="1"/>
		<edge from-layer="3095" from-port="2" to-layer="3097" to-port="0"/>
		<edge from-layer="3096" from-port="0" to-layer="3097" to-port="1"/>
		<edge from-layer="3097" from-port="2" to-layer="3099" to-port="0"/>
		<edge from-layer="3098" from-port="0" to-layer="3099" to-port="1"/>
		<edge from-layer="3091" from-port="5" to-layer="3100" to-port="0"/>
		<edge from-layer="3099" from-port="2" to-layer="3100" to-port="1"/>
		<edge from-layer="3100" from-port="2" to-layer="3102" to-port="0"/>
		<edge from-layer="3101" from-port="0" to-layer="3102" to-port="1"/>
		<edge from-layer="3102" from-port="2" to-layer="3103" to-port="0"/>
		<edge from-layer="3103" from-port="1" to-layer="3108" to-port="0"/>
		<edge from-layer="3104" from-port="0" to-layer="3108" to-port="1"/>
		<edge from-layer="3105" from-port="0" to-layer="3108" to-port="2"/>
		<edge from-layer="3106" from-port="0" to-layer="3108" to-port="3"/>
		<edge from-layer="3107" from-port="0" to-layer="3108" to-port="4"/>
		<edge from-layer="3109" from-port="0" to-layer="3110" to-port="0"/>
		<edge from-layer="3110" from-port="1" to-layer="3112" to-port="0"/>
		<edge from-layer="3111" from-port="0" to-layer="3112" to-port="1"/>
		<edge from-layer="3112" from-port="2" to-layer="3114" to-port="0"/>
		<edge from-layer="3113" from-port="0" to-layer="3114" to-port="1"/>
		<edge from-layer="3108" from-port="5" to-layer="3115" to-port="0"/>
		<edge from-layer="3114" from-port="2" to-layer="3115" to-port="1"/>
		<edge from-layer="3115" from-port="2" to-layer="3117" to-port="0"/>
		<edge from-layer="3116" from-port="0" to-layer="3117" to-port="1"/>
		<edge from-layer="3117" from-port="2" to-layer="3122" to-port="0"/>
		<edge from-layer="3118" from-port="0" to-layer="3122" to-port="1"/>
		<edge from-layer="3119" from-port="0" to-layer="3122" to-port="2"/>
		<edge from-layer="3120" from-port="0" to-layer="3122" to-port="3"/>
		<edge from-layer="3121" from-port="0" to-layer="3122" to-port="4"/>
		<edge from-layer="3123" from-port="0" to-layer="3124" to-port="0"/>
		<edge from-layer="3124" from-port="1" to-layer="3126" to-port="0"/>
		<edge from-layer="3125" from-port="0" to-layer="3126" to-port="1"/>
		<edge from-layer="3126" from-port="2" to-layer="3128" to-port="0"/>
		<edge from-layer="3127" from-port="0" to-layer="3128" to-port="1"/>
		<edge from-layer="3128" from-port="2" to-layer="3130" to-port="0"/>
		<edge from-layer="3129" from-port="0" to-layer="3130" to-port="1"/>
		<edge from-layer="3122" from-port="5" to-layer="3131" to-port="0"/>
		<edge from-layer="3130" from-port="2" to-layer="3131" to-port="1"/>
		<edge from-layer="3131" from-port="2" to-layer="3133" to-port="0"/>
		<edge from-layer="3132" from-port="0" to-layer="3133" to-port="1"/>
		<edge from-layer="3133" from-port="2" to-layer="3134" to-port="0"/>
		<edge from-layer="3134" from-port="1" to-layer="3139" to-port="0"/>
		<edge from-layer="3135" from-port="0" to-layer="3139" to-port="1"/>
		<edge from-layer="3136" from-port="0" to-layer="3139" to-port="2"/>
		<edge from-layer="3137" from-port="0" to-layer="3139" to-port="3"/>
		<edge from-layer="3138" from-port="0" to-layer="3139" to-port="4"/>
		<edge from-layer="3140" from-port="0" to-layer="3141" to-port="0"/>
		<edge from-layer="3141" from-port="1" to-layer="3143" to-port="0"/>
		<edge from-layer="3142" from-port="0" to-layer="3143" to-port="1"/>
		<edge from-layer="3143" from-port="2" to-layer="3145" to-port="0"/>
		<edge from-layer="3144" from-port="0" to-layer="3145" to-port="1"/>
		<edge from-layer="3139" from-port="5" to-layer="3146" to-port="0"/>
		<edge from-layer="3145" from-port="2" to-layer="3146" to-port="1"/>
		<edge from-layer="3146" from-port="2" to-layer="3148" to-port="0"/>
		<edge from-layer="3147" from-port="0" to-layer="3148" to-port="1"/>
		<edge from-layer="3148" from-port="2" to-layer="3153" to-port="0"/>
		<edge from-layer="3149" from-port="0" to-layer="3153" to-port="1"/>
		<edge from-layer="3150" from-port="0" to-layer="3153" to-port="2"/>
		<edge from-layer="3151" from-port="0" to-layer="3153" to-port="3"/>
		<edge from-layer="3152" from-port="0" to-layer="3153" to-port="4"/>
		<edge from-layer="3154" from-port="0" to-layer="3155" to-port="0"/>
		<edge from-layer="3155" from-port="1" to-layer="3157" to-port="0"/>
		<edge from-layer="3156" from-port="0" to-layer="3157" to-port="1"/>
		<edge from-layer="3157" from-port="2" to-layer="3159" to-port="0"/>
		<edge from-layer="3158" from-port="0" to-layer="3159" to-port="1"/>
		<edge from-layer="3159" from-port="2" to-layer="3161" to-port="0"/>
		<edge from-layer="3160" from-port="0" to-layer="3161" to-port="1"/>
		<edge from-layer="3153" from-port="5" to-layer="3162" to-port="0"/>
		<edge from-layer="3161" from-port="2" to-layer="3162" to-port="1"/>
		<edge from-layer="3162" from-port="2" to-layer="3164" to-port="0"/>
		<edge from-layer="3163" from-port="0" to-layer="3164" to-port="1"/>
		<edge from-layer="3164" from-port="2" to-layer="3165" to-port="0"/>
		<edge from-layer="3165" from-port="1" to-layer="3170" to-port="0"/>
		<edge from-layer="3166" from-port="0" to-layer="3170" to-port="1"/>
		<edge from-layer="3167" from-port="0" to-layer="3170" to-port="2"/>
		<edge from-layer="3168" from-port="0" to-layer="3170" to-port="3"/>
		<edge from-layer="3169" from-port="0" to-layer="3170" to-port="4"/>
		<edge from-layer="3171" from-port="0" to-layer="3172" to-port="0"/>
		<edge from-layer="3172" from-port="1" to-layer="3174" to-port="0"/>
		<edge from-layer="3173" from-port="0" to-layer="3174" to-port="1"/>
		<edge from-layer="3174" from-port="2" to-layer="3176" to-port="0"/>
		<edge from-layer="3175" from-port="0" to-layer="3176" to-port="1"/>
		<edge from-layer="3170" from-port="5" to-layer="3177" to-port="0"/>
		<edge from-layer="3176" from-port="2" to-layer="3177" to-port="1"/>
		<edge from-layer="3177" from-port="2" to-layer="3179" to-port="0"/>
		<edge from-layer="3178" from-port="0" to-layer="3179" to-port="1"/>
		<edge from-layer="3179" from-port="2" to-layer="3184" to-port="0"/>
		<edge from-layer="3180" from-port="0" to-layer="3184" to-port="1"/>
		<edge from-layer="3181" from-port="0" to-layer="3184" to-port="2"/>
		<edge from-layer="3182" from-port="0" to-layer="3184" to-port="3"/>
		<edge from-layer="3183" from-port="0" to-layer="3184" to-port="4"/>
		<edge from-layer="3185" from-port="0" to-layer="3186" to-port="0"/>
		<edge from-layer="3186" from-port="1" to-layer="3188" to-port="0"/>
		<edge from-layer="3187" from-port="0" to-layer="3188" to-port="1"/>
		<edge from-layer="3188" from-port="2" to-layer="3190" to-port="0"/>
		<edge from-layer="3189" from-port="0" to-layer="3190" to-port="1"/>
		<edge from-layer="3190" from-port="2" to-layer="3192" to-port="0"/>
		<edge from-layer="3191" from-port="0" to-layer="3192" to-port="1"/>
		<edge from-layer="3184" from-port="5" to-layer="3193" to-port="0"/>
		<edge from-layer="3192" from-port="2" to-layer="3193" to-port="1"/>
		<edge from-layer="3193" from-port="2" to-layer="3195" to-port="0"/>
		<edge from-layer="3194" from-port="0" to-layer="3195" to-port="1"/>
		<edge from-layer="3195" from-port="2" to-layer="3196" to-port="0"/>
		<edge from-layer="3196" from-port="1" to-layer="3201" to-port="0"/>
		<edge from-layer="3197" from-port="0" to-layer="3201" to-port="1"/>
		<edge from-layer="3198" from-port="0" to-layer="3201" to-port="2"/>
		<edge from-layer="3199" from-port="0" to-layer="3201" to-port="3"/>
		<edge from-layer="3200" from-port="0" to-layer="3201" to-port="4"/>
		<edge from-layer="3196" from-port="1" to-layer="3203" to-port="0"/>
		<edge from-layer="3203" from-port="1" to-layer="3204" to-port="0"/>
		<edge from-layer="3204" from-port="1" to-layer="3206" to-port="0"/>
		<edge from-layer="3205" from-port="0" to-layer="3206" to-port="1"/>
		<edge from-layer="3202" from-port="0" to-layer="3208" to-port="0"/>
		<edge from-layer="3206" from-port="2" to-layer="3208" to-port="1"/>
		<edge from-layer="3207" from-port="0" to-layer="3208" to-port="2"/>
		<edge from-layer="3201" from-port="5" to-layer="3209" to-port="0"/>
		<edge from-layer="3208" from-port="3" to-layer="3209" to-port="1"/>
		<edge from-layer="3209" from-port="2" to-layer="3214" to-port="0"/>
		<edge from-layer="3210" from-port="0" to-layer="3214" to-port="1"/>
		<edge from-layer="3211" from-port="0" to-layer="3214" to-port="2"/>
		<edge from-layer="3212" from-port="0" to-layer="3214" to-port="3"/>
		<edge from-layer="3213" from-port="0" to-layer="3214" to-port="4"/>
		<edge from-layer="3214" from-port="5" to-layer="3216" to-port="0"/>
		<edge from-layer="3215" from-port="0" to-layer="3216" to-port="1"/>
		<edge from-layer="3216" from-port="2" to-layer="3218" to-port="0"/>
		<edge from-layer="3218" from-port="1" to-layer="3219" to-port="0"/>
		<edge from-layer="3219" from-port="1" to-layer="3221" to-port="0"/>
		<edge from-layer="3220" from-port="0" to-layer="3221" to-port="1"/>
		<edge from-layer="3217" from-port="0" to-layer="3223" to-port="0"/>
		<edge from-layer="3221" from-port="2" to-layer="3223" to-port="1"/>
		<edge from-layer="3222" from-port="0" to-layer="3223" to-port="2"/>
		<edge from-layer="3216" from-port="2" to-layer="3224" to-port="0"/>
		<edge from-layer="3223" from-port="3" to-layer="3224" to-port="1"/>
		<edge from-layer="3224" from-port="2" to-layer="3226" to-port="0"/>
		<edge from-layer="3225" from-port="0" to-layer="3226" to-port="1"/>
		<edge from-layer="3226" from-port="2" to-layer="3228" to-port="0"/>
		<edge from-layer="3227" from-port="0" to-layer="3228" to-port="1"/>
		<edge from-layer="3228" from-port="2" to-layer="3233" to-port="0"/>
		<edge from-layer="3229" from-port="0" to-layer="3233" to-port="1"/>
		<edge from-layer="3230" from-port="0" to-layer="3233" to-port="2"/>
		<edge from-layer="3231" from-port="0" to-layer="3233" to-port="3"/>
		<edge from-layer="3232" from-port="0" to-layer="3233" to-port="4"/>
		<edge from-layer="3209" from-port="2" to-layer="3234" to-port="0"/>
		<edge from-layer="3233" from-port="5" to-layer="3235" to-port="0"/>
		<edge from-layer="3234" from-port="1" to-layer="3235" to-port="1"/>
		<edge from-layer="3235" from-port="2" to-layer="3237" to-port="0"/>
		<edge from-layer="3236" from-port="0" to-layer="3237" to-port="1"/>
		<edge from-layer="3237" from-port="2" to-layer="3239" to-port="0"/>
		<edge from-layer="3238" from-port="0" to-layer="3239" to-port="1"/>
		<edge from-layer="3239" from-port="2" to-layer="3240" to-port="0"/>
		<edge from-layer="3240" from-port="1" to-layer="3245" to-port="0"/>
		<edge from-layer="3241" from-port="0" to-layer="3245" to-port="1"/>
		<edge from-layer="3242" from-port="0" to-layer="3245" to-port="2"/>
		<edge from-layer="3243" from-port="0" to-layer="3245" to-port="3"/>
		<edge from-layer="3244" from-port="0" to-layer="3245" to-port="4"/>
		<edge from-layer="3201" from-port="5" to-layer="3246" to-port="0"/>
		<edge from-layer="3245" from-port="5" to-layer="3246" to-port="1"/>
		<edge from-layer="3246" from-port="2" to-layer="3251" to-port="0"/>
		<edge from-layer="3247" from-port="0" to-layer="3251" to-port="1"/>
		<edge from-layer="3248" from-port="0" to-layer="3251" to-port="2"/>
		<edge from-layer="3249" from-port="0" to-layer="3251" to-port="3"/>
		<edge from-layer="3250" from-port="0" to-layer="3251" to-port="4"/>
		<edge from-layer="3077" from-port="5" to-layer="3252" to-port="0"/>
		<edge from-layer="3251" from-port="5" to-layer="3252" to-port="1"/>
		<edge from-layer="3252" from-port="2" to-layer="3257" to-port="0"/>
		<edge from-layer="3253" from-port="0" to-layer="3257" to-port="1"/>
		<edge from-layer="3254" from-port="0" to-layer="3257" to-port="2"/>
		<edge from-layer="3255" from-port="0" to-layer="3257" to-port="3"/>
		<edge from-layer="3256" from-port="0" to-layer="3257" to-port="4"/>
		<edge from-layer="3258" from-port="0" to-layer="3259" to-port="0"/>
		<edge from-layer="3259" from-port="1" to-layer="3261" to-port="0"/>
		<edge from-layer="3260" from-port="0" to-layer="3261" to-port="1"/>
		<edge from-layer="3261" from-port="2" to-layer="3263" to-port="0"/>
		<edge from-layer="3262" from-port="0" to-layer="3263" to-port="1"/>
		<edge from-layer="3257" from-port="5" to-layer="3264" to-port="0"/>
		<edge from-layer="3263" from-port="2" to-layer="3264" to-port="1"/>
		<edge from-layer="3264" from-port="2" to-layer="3266" to-port="0"/>
		<edge from-layer="3265" from-port="0" to-layer="3266" to-port="1"/>
		<edge from-layer="3266" from-port="2" to-layer="3271" to-port="0"/>
		<edge from-layer="3267" from-port="0" to-layer="3271" to-port="1"/>
		<edge from-layer="3268" from-port="0" to-layer="3271" to-port="2"/>
		<edge from-layer="3269" from-port="0" to-layer="3271" to-port="3"/>
		<edge from-layer="3270" from-port="0" to-layer="3271" to-port="4"/>
		<edge from-layer="3271" from-port="5" to-layer="3272" to-port="0"/>
		<edge from-layer="2714" from-port="5" to-layer="3272" to-port="1"/>
		<edge from-layer="3272" from-port="2" to-layer="3273" to-port="0"/>
		<edge from-layer="3273" from-port="1" to-layer="3278" to-port="0"/>
		<edge from-layer="3274" from-port="0" to-layer="3278" to-port="1"/>
		<edge from-layer="3275" from-port="0" to-layer="3278" to-port="2"/>
		<edge from-layer="3276" from-port="0" to-layer="3278" to-port="3"/>
		<edge from-layer="3277" from-port="0" to-layer="3278" to-port="4"/>
		<edge from-layer="3279" from-port="0" to-layer="3280" to-port="0"/>
		<edge from-layer="3280" from-port="1" to-layer="3282" to-port="0"/>
		<edge from-layer="3281" from-port="0" to-layer="3282" to-port="1"/>
		<edge from-layer="3282" from-port="2" to-layer="3284" to-port="0"/>
		<edge from-layer="3283" from-port="0" to-layer="3284" to-port="1"/>
		<edge from-layer="3278" from-port="5" to-layer="3285" to-port="0"/>
		<edge from-layer="3284" from-port="2" to-layer="3285" to-port="1"/>
		<edge from-layer="3285" from-port="2" to-layer="3287" to-port="0"/>
		<edge from-layer="3286" from-port="0" to-layer="3287" to-port="1"/>
		<edge from-layer="3287" from-port="2" to-layer="3288" to-port="0"/>
		<edge from-layer="3288" from-port="1" to-layer="3293" to-port="0"/>
		<edge from-layer="3289" from-port="0" to-layer="3293" to-port="1"/>
		<edge from-layer="3290" from-port="0" to-layer="3293" to-port="2"/>
		<edge from-layer="3291" from-port="0" to-layer="3293" to-port="3"/>
		<edge from-layer="3292" from-port="0" to-layer="3293" to-port="4"/>
		<edge from-layer="3294" from-port="0" to-layer="3295" to-port="0"/>
		<edge from-layer="3295" from-port="1" to-layer="3297" to-port="0"/>
		<edge from-layer="3296" from-port="0" to-layer="3297" to-port="1"/>
		<edge from-layer="3297" from-port="2" to-layer="3299" to-port="0"/>
		<edge from-layer="3298" from-port="0" to-layer="3299" to-port="1"/>
		<edge from-layer="3299" from-port="2" to-layer="3301" to-port="0"/>
		<edge from-layer="3300" from-port="0" to-layer="3301" to-port="1"/>
		<edge from-layer="3293" from-port="5" to-layer="3302" to-port="0"/>
		<edge from-layer="3301" from-port="2" to-layer="3302" to-port="1"/>
		<edge from-layer="3302" from-port="2" to-layer="3304" to-port="0"/>
		<edge from-layer="3303" from-port="0" to-layer="3304" to-port="1"/>
		<edge from-layer="3304" from-port="2" to-layer="3309" to-port="0"/>
		<edge from-layer="3305" from-port="0" to-layer="3309" to-port="1"/>
		<edge from-layer="3306" from-port="0" to-layer="3309" to-port="2"/>
		<edge from-layer="3307" from-port="0" to-layer="3309" to-port="3"/>
		<edge from-layer="3308" from-port="0" to-layer="3309" to-port="4"/>
		<edge from-layer="3304" from-port="2" to-layer="3310" to-port="0"/>
		<edge from-layer="3310" from-port="1" to-layer="3313" to-port="0"/>
		<edge from-layer="3311" from-port="0" to-layer="3313" to-port="1"/>
		<edge from-layer="3312" from-port="0" to-layer="3313" to-port="2"/>
		<edge from-layer="3313" from-port="3" to-layer="3315" to-port="0"/>
		<edge from-layer="3314" from-port="0" to-layer="3315" to-port="1"/>
		<edge from-layer="3315" from-port="2" to-layer="3317" to-port="0"/>
		<edge from-layer="3316" from-port="0" to-layer="3317" to-port="1"/>
		<edge from-layer="3309" from-port="5" to-layer="3318" to-port="0"/>
		<edge from-layer="3317" from-port="2" to-layer="3318" to-port="1"/>
		<edge from-layer="3319" from-port="0" to-layer="3320" to-port="0"/>
		<edge from-layer="3320" from-port="1" to-layer="3322" to-port="0"/>
		<edge from-layer="3321" from-port="0" to-layer="3322" to-port="1"/>
		<edge from-layer="3322" from-port="2" to-layer="3324" to-port="0"/>
		<edge from-layer="3323" from-port="0" to-layer="3324" to-port="1"/>
		<edge from-layer="3318" from-port="2" to-layer="3325" to-port="0"/>
		<edge from-layer="3324" from-port="2" to-layer="3325" to-port="1"/>
		<edge from-layer="3325" from-port="2" to-layer="3327" to-port="0"/>
		<edge from-layer="3326" from-port="0" to-layer="3327" to-port="1"/>
		<edge from-layer="3327" from-port="2" to-layer="3332" to-port="0"/>
		<edge from-layer="3328" from-port="0" to-layer="3332" to-port="1"/>
		<edge from-layer="3329" from-port="0" to-layer="3332" to-port="2"/>
		<edge from-layer="3330" from-port="0" to-layer="3332" to-port="3"/>
		<edge from-layer="3331" from-port="0" to-layer="3332" to-port="4"/>
		<edge from-layer="3318" from-port="2" to-layer="3333" to-port="0"/>
		<edge from-layer="3333" from-port="1" to-layer="3336" to-port="0"/>
		<edge from-layer="3334" from-port="0" to-layer="3336" to-port="1"/>
		<edge from-layer="3335" from-port="0" to-layer="3336" to-port="2"/>
		<edge from-layer="3336" from-port="3" to-layer="3338" to-port="0"/>
		<edge from-layer="3337" from-port="0" to-layer="3338" to-port="1"/>
		<edge from-layer="3338" from-port="2" to-layer="3341" to-port="0"/>
		<edge from-layer="3339" from-port="0" to-layer="3341" to-port="1"/>
		<edge from-layer="3340" from-port="0" to-layer="3341" to-port="2"/>
		<edge from-layer="3332" from-port="5" to-layer="3342" to-port="0"/>
		<edge from-layer="3341" from-port="3" to-layer="3342" to-port="1"/>
		<edge from-layer="3342" from-port="2" to-layer="3344" to-port="0"/>
		<edge from-layer="3343" from-port="0" to-layer="3344" to-port="1"/>
		<edge from-layer="3344" from-port="2" to-layer="3346" to-port="0"/>
		<edge from-layer="3345" from-port="0" to-layer="3346" to-port="1"/>
		<edge from-layer="3346" from-port="2" to-layer="3348" to-port="0"/>
		<edge from-layer="3347" from-port="0" to-layer="3348" to-port="1"/>
		<edge from-layer="3348" from-port="2" to-layer="3349" to-port="0"/>
		<edge from-layer="3349" from-port="1" to-layer="3352" to-port="0"/>
		<edge from-layer="3350" from-port="0" to-layer="3352" to-port="1"/>
		<edge from-layer="3351" from-port="0" to-layer="3352" to-port="2"/>
		<edge from-layer="3352" from-port="3" to-layer="3354" to-port="0"/>
		<edge from-layer="3353" from-port="0" to-layer="3354" to-port="1"/>
		<edge from-layer="3354" from-port="2" to-layer="3356" to-port="0"/>
		<edge from-layer="3355" from-port="0" to-layer="3356" to-port="1"/>
		<edge from-layer="3348" from-port="2" to-layer="3357" to-port="0"/>
		<edge from-layer="3356" from-port="2" to-layer="3357" to-port="1"/>
		<edge from-layer="3357" from-port="2" to-layer="3358" to-port="0"/>
	</edges>
	<meta_data>
		<MO_version value="unknown version"/>
		<cli_parameters>
			<caffe_parser_path value="DIR"/>
			<data_type value="FP16"/>
			<disable_nhwc_to_nchw value="False"/>
			<disable_omitting_optional value="False"/>
			<disable_resnet_optimization value="False"/>
			<disable_weights_compression value="False"/>
			<enable_concat_optimization value="False"/>
			<enable_flattening_nested_params value="False"/>
			<enable_ssd_gluoncv value="False"/>
			<extensions value="DIR"/>
			<framework value="onnx"/>
			<freeze_placeholder_with_value value="{}"/>
			<generate_deprecated_IR_V7 value="False"/>
			<input value="data"/>
			<input_model value="DIR/person-reidentification-retail-0277.onnx"/>
			<input_model_is_text value="False"/>
			<input_shape value="[1,3,256,128]"/>
			<k value="DIR/CustomLayersMapping.xml"/>
			<keep_shape_ops value="True"/>
			<legacy_mxnet_model value="False"/>
			<log_level value="ERROR"/>
			<mean_scale_values value="{'data': {'mean': array([123.675, 116.28 , 103.53 ]), 'scale': array([58.395, 57.12 , 57.375])}}"/>
			<mean_values value="data[123.675,116.28,103.53]"/>
			<model_name value="person-reidentification-retail-0277"/>
			<output value="['reid_embedding']"/>
			<output_dir value="DIR"/>
			<placeholder_data_types value="{}"/>
			<placeholder_shapes value="{'data': array([  1,   3, 256, 128])}"/>
			<progress value="False"/>
			<remove_memory value="False"/>
			<remove_output_softmax value="False"/>
			<reverse_input_channels value="True"/>
			<save_params_from_nd value="False"/>
			<scale_values value="data[58.395,57.12,57.375]"/>
			<silent value="False"/>
			<static_shape value="False"/>
			<stream_output value="False"/>
			<unset unset_cli_parameters="batch, counts, disable_fusing, disable_gfusing, finegrain_fusing, input_checkpoint, input_meta_graph, input_proto, input_symbol, mean_file, mean_file_offsets, move_to_preprocess, nd_prefix_name, pretrained_model_name, saved_model_dir, saved_model_tags, scale, tensorboard_logdir, tensorflow_custom_layer_libraries, tensorflow_custom_operations_config_update, tensorflow_object_detection_api_pipeline_config, tensorflow_use_custom_operations_config, transformations_config"/>
		</cli_parameters>
	</meta_data>
	<quantization_parameters>
		<config>{
		'compression': {
			'algorithms': [
				{
					'name': 'DefaultQuantization',
					'params': {
						'num_samples_for_tuning': 2000,
						'preset': 'performance',
						'stat_subset_size': 300,
						'use_layerwise_tuning': false
					}
				}
			],
			'dump_intermediate_model': true,
			'target_device': 'ANY'
		},
		'engine': {
			'models': [
				{
					'name': 'person-reidentification-retail-0277',
					'launchers': [
						{
							'framework': 'dlsdk',
							'adapter': 'reid',
							'device': 'CPU'
						}
					],
					'datasets': [
						{
							'name': 'market1501',
							'data_source': 'PATH',
							'annotation_conversion': {
								'converter': 'market1501_reid',
								'data_dir': 'PATH'
							},
							'annotation': 'market1501_reid.pickle',
							'preprocessing': [
								{
									'type': 'resize',
									'dst_width': 128,
									'dst_height': 256,
									'use_pillow': true,
									'interpolation': 'BILINEAR'
								}
							],
							'metrics': [
								{
									'name': 'rank@1',
									'type': 'cmc',
									'top_k': 1
								},
								{
									'type': 'reid_map'
								}
							],
							'_command_line_mapping': {
								'data_dir': 'PATH'
							}
						}
					]
				}
			],
			'stat_requests_number': null,
			'eval_requests_number': null,
			'type': 'accuracy_checker'
		}
	}</config>
		<version value="1.0"/>
		<cli_params value="{'evaluate': False, 'output_dir': 'PATH', 'direct_dump': True, 'log_level': 'INFO', 'pbar': False, 'stream_output': False, 'keep_uncompressed_weights': False}"/>
	</quantization_parameters>
</net>
